node {
  name: "global_step"
  op: "Variable"
  attr {
    key: "_output_shapes"
    value {
      list {
        shape {
        }
      }
    }
  }
  attr {
    key: "container"
    value {
      s: ""
    }
  }
  attr {
    key: "dtype"
    value {
      type: DT_INT64
    }
  }
  attr {
    key: "shape"
    value {
      shape {
      }
    }
  }
  attr {
    key: "shared_name"
    value {
      s: ""
    }
  }
}
node {
  name: "global_step/Initializer/zeros"
  op: "Const"
  attr {
    key: "_class"
    value {
      list {
        s: "loc:@global_step"
      }
    }
  }
  attr {
    key: "_output_shapes"
    value {
      list {
        shape {
        }
      }
    }
  }
  attr {
    key: "dtype"
    value {
      type: DT_INT64
    }
  }
  attr {
    key: "value"
    value {
      tensor {
        dtype: DT_INT64
        tensor_shape {
        }
        int64_val: 0
      }
    }
  }
}
node {
  name: "global_step/Assign"
  op: "Assign"
  input: "global_step"
  input: "global_step/Initializer/zeros"
  attr {
    key: "T"
    value {
      type: DT_INT64
    }
  }
  attr {
    key: "_class"
    value {
      list {
        s: "loc:@global_step"
      }
    }
  }
  attr {
    key: "_output_shapes"
    value {
      list {
        shape {
        }
      }
    }
  }
  attr {
    key: "use_locking"
    value {
      b: true
    }
  }
  attr {
    key: "validate_shape"
    value {
      b: true
    }
  }
}
node {
  name: "global_step/read"
  op: "Identity"
  input: "global_step"
  attr {
    key: "T"
    value {
      type: DT_INT64
    }
  }
  attr {
    key: "_class"
    value {
      list {
        s: "loc:@global_step"
      }
    }
  }
  attr {
    key: "_output_shapes"
    value {
      list {
        shape {
        }
      }
    }
  }
}
node {
  name: "SparseTensor/indices"
  op: "Const"
  attr {
    key: "_output_shapes"
    value {
      list {
        shape {
          dim {
            size: 1724
          }
          dim {
            size: 2
          }
        }
      }
    }
  }
  attr {
    key: "dtype"
    value {
      type: DT_INT64
    }
  }
  attr {
    key: "value"
    value {
      tensor {
        dtype: DT_INT64
        tensor_shape {
          dim {
            size: 1724
          }
          dim {
            size: 2
          }
        }
        tensor_content: "…"
      }
    }
  }
}
node {
  name: "SparseTensor/values"
  op: "Const"
  attr {
    key: "_output_shapes"
    value {
      list {
        shape {
          dim {
            size: 1724
          }
        }
      }
    }
  }
  attr {
    key: "dtype"
    value {
      type: DT_STRING
    }
  }
  attr {
    key: "value"
    value {
      tensor {
        dtype: DT_STRING
        tensor_shape {
          dim {
            size: 1724
          }
        }
        string_val: "vhigh"
        string_val: "vhigh"
        string_val: "vhigh"
        string_val: "vhigh"
        string_val: "vhigh"
        string_val: "vhigh"
        string_val: "vhigh"
        string_val: "vhigh"
        string_val: "vhigh"
        string_val: "vhigh"
        string_val: "vhigh"
        string_val: "vhigh"
        string_val: "vhigh"
        string_val: "vhigh"
        string_val: "vhigh"
        string_val: "vhigh"
        string_val: "vhigh"
        string_val: "vhigh"
        string_val: "vhigh"
        string_val: "vhigh"
        string_val: "vhigh"
        string_val: "vhigh"
        string_val: "vhigh"
        string_val: "vhigh"
        string_val: "vhigh"
        string_val: "vhigh"
        string_val: "vhigh"
        string_val: "vhigh"
        string_val: "vhigh"
        string_val: "vhigh"
        string_val: "vhigh"
        string_val: "vhigh"
        string_val: "vhigh"
        string_val: "vhigh"
        string_val: "vhigh"
        string_val: "vhigh"
        string_val: "vhigh"
        string_val: "vhigh"
        string_val: "vhigh"
        string_val: "vhigh"
        string_val: "vhigh"
        string_val: "vhigh"
        string_val: "vhigh"
        string_val: "vhigh"
        string_val: "vhigh"
        string_val: "vhigh"
        string_val: "vhigh"
        string_val: "vhigh"
        string_val: "vhigh"
        string_val: "vhigh"
        string_val: "vhigh"
        string_val: "vhigh"
        string_val: "vhigh"
        string_val: "vhigh"
        string_val: "vhigh"
        string_val: "vhigh"
        string_val: "vhigh"
        string_val: "vhigh"
        string_val: "vhigh"
        string_val: "vhigh"
        string_val: "vhigh"
        string_val: "vhigh"
        string_val: "vhigh"
        string_val: "vhigh"
        string_val: "vhigh"
        string_val: "vhigh"
        string_val: "vhigh"
        string_val: "vhigh"
        string_val: "vhigh"
        string_val: "vhigh"
        string_val: "vhigh"
        string_val: "vhigh"
        string_val: "vhigh"
        string_val: "vhigh"
        string_val: "vhigh"
        string_val: "vhigh"
        string_val: "vhigh"
        string_val: "vhigh"
        string_val: "vhigh"
        string_val: "vhigh"
        string_val: "vhigh"
        string_val: "vhigh"
        string_val: "vhigh"
        string_val: "vhigh"
        string_val: "vhigh"
        string_val: "vhigh"
        string_val: "vhigh"
        string_val: "vhigh"
        string_val: "vhigh"
        string_val: "vhigh"
        string_val: "vhigh"
        string_val: "vhigh"
        string_val: "vhigh"
        string_val: "vhigh"
        string_val: "vhigh"
        string_val: "vhigh"
        string_val: "vhigh"
        string_val: "vhigh"
        string_val: "vhigh"
        string_val: "vhigh"
        string_val: "vhigh"
        string_val: "vhigh"
        string_val: "vhigh"
        string_val: "vhigh"
        string_val: "vhigh"
        string_val: "vhigh"
        string_val: "vhigh"
        string_val: "vhigh"
        string_val: "vhigh"
        string_val: "vhigh"
        string_val: "vhigh"
        string_val: "vhigh"
        string_val: "vhigh"
        string_val: "vhigh"
        string_val: "vhigh"
        string_val: "vhigh"
        string_val: "vhigh"
        string_val: "vhigh"
        string_val: "vhigh"
        string_val: "vhigh"
        string_val: "vhigh"
        string_val: "vhigh"
        string_val: "vhigh"
        string_val: "vhigh"
        string_val: "vhigh"
        string_val: "vhigh"
        string_val: "vhigh"
        string_val: "vhigh"
        string_val: "vhigh"
        string_val: "vhigh"
        string_val: "vhigh"
        string_val: "vhigh"
        string_val: "vhigh"
        string_val: "vhigh"
        string_val: "vhigh"
        string_val: "vhigh"
        string_val: "vhigh"
        string_val: "vhigh"
        string_val: "vhigh"
        string_val: "vhigh"
        string_val: "vhigh"
        string_val: "vhigh"
        string_val: "vhigh"
        string_val: "vhigh"
        string_val: "vhigh"
        string_val: "vhigh"
        string_val: "vhigh"
        string_val: "vhigh"
        string_val: "vhigh"
        string_val: "vhigh"
        string_val: "vhigh"
        string_val: "vhigh"
        string_val: "vhigh"
        string_val: "vhigh"
        string_val: "vhigh"
        string_val: "vhigh"
        string_val: "vhigh"
        string_val: "vhigh"
        string_val: "vhigh"
        string_val: "vhigh"
        string_val: "vhigh"
        string_val: "vhigh"
        string_val: "vhigh"
        string_val: "vhigh"
        string_val: "vhigh"
        string_val: "vhigh"
        string_val: "vhigh"
        string_val: "vhigh"
        string_val: "vhigh"
        string_val: "vhigh"
        string_val: "vhigh"
        string_val: "vhigh"
        string_val: "vhigh"
        string_val: "vhigh"
        string_val: "vhigh"
        string_val: "vhigh"
        string_val: "vhigh"
        string_val: "vhigh"
        string_val: "vhigh"
        string_val: "vhigh"
        string_val: "vhigh"
        string_val: "vhigh"
        string_val: "vhigh"
        string_val: "vhigh"
        string_val: "vhigh"
        string_val: "vhigh"
        string_val: "vhigh"
        string_val: "vhigh"
        string_val: "vhigh"
        string_val: "vhigh"
        string_val: "vhigh"
        string_val: "vhigh"
        string_val: "vhigh"
        string_val: "vhigh"
        string_val: "vhigh"
        string_val: "vhigh"
        string_val: "vhigh"
        string_val: "vhigh"
        string_val: "vhigh"
        string_val: "vhigh"
        string_val: "vhigh"
        string_val: "vhigh"
        string_val: "vhigh"
        string_val: "vhigh"
        string_val: "vhigh"
        string_val: "vhigh"
        string_val: "vhigh"
        string_val: "vhigh"
        string_val: "vhigh"
        string_val: "vhigh"
        string_val: "vhigh"
        string_val: "vhigh"
        string_val: "vhigh"
        string_val: "vhigh"
        string_val: "vhigh"
        string_val: "vhigh"
        string_val: "vhigh"
        string_val: "vhigh"
        string_val: "vhigh"
        string_val: "vhigh"
        string_val: "vhigh"
        string_val: "vhigh"
        string_val: "vhigh"
        string_val: "vhigh"
        string_val: "vhigh"
        string_val: "vhigh"
        string_val: "vhigh"
        string_val: "vhigh"
        string_val: "vhigh"
        string_val: "vhigh"
        string_val: "vhigh"
        string_val: "vhigh"
        string_val: "vhigh"
        string_val: "vhigh"
        string_val: "vhigh"
        string_val: "vhigh"
        string_val: "vhigh"
        string_val: "vhigh"
        string_val: "vhigh"
        string_val: "vhigh"
        string_val: "vhigh"
        string_val: "vhigh"
        string_val: "vhigh"
        string_val: "vhigh"
        string_val: "vhigh"
        string_val: "vhigh"
        string_val: "vhigh"
        string_val: "vhigh"
        string_val: "vhigh"
        string_val: "vhigh"
        string_val: "vhigh"
        string_val: "vhigh"
        string_val: "vhigh"
        string_val: "vhigh"
        string_val: "vhigh"
        string_val: "vhigh"
        string_val: "vhigh"
        string_val: "vhigh"
        string_val: "vhigh"
        string_val: "vhigh"
        string_val: "vhigh"
        string_val: "vhigh"
        string_val: "vhigh"
        string_val: "vhigh"
        string_val: "vhigh"
        string_val: "vhigh"
        string_val: "vhigh"
        string_val: "vhigh"
        string_val: "vhigh"
        string_val: "vhigh"
        string_val: "vhigh"
        string_val: "vhigh"
        string_val: "vhigh"
        string_val: "vhigh"
        string_val: "vhigh"
        string_val: "vhigh"
        string_val: "vhigh"
        string_val: "vhigh"
        string_val: "vhigh"
        string_val: "vhigh"
        string_val: "vhigh"
        string_val: "vhigh"
        string_val: "vhigh"
        string_val: "vhigh"
        string_val: "vhigh"
        string_val: "vhigh"
        string_val: "vhigh"
        string_val: "vhigh"
        string_val: "vhigh"
        string_val: "vhigh"
        string_val: "vhigh"
        string_val: "vhigh"
        string_val: "vhigh"
        string_val: "vhigh"
        string_val: "vhigh"
        string_val: "vhigh"
        string_val: "vhigh"
        string_val: "vhigh"
        string_val: "vhigh"
        string_val: "vhigh"
        string_val: "vhigh"
        string_val: "vhigh"
        string_val: "vhigh"
        string_val: "vhigh"
        string_val: "vhigh"
        string_val: "vhigh"
        string_val: "vhigh"
        string_val: "vhigh"
        string_val: "vhigh"
        string_val: "vhigh"
        string_val: "vhigh"
        string_val: "vhigh"
        string_val: "vhigh"
        string_val: "vhigh"
        string_val: "vhigh"
        string_val: "vhigh"
        string_val: "vhigh"
        string_val: "vhigh"
        string_val: "vhigh"
        string_val: "vhigh"
        string_val: "vhigh"
        string_val: "vhigh"
        string_val: "vhigh"
        string_val: "vhigh"
        string_val: "vhigh"
        string_val: "vhigh"
        string_val: "vhigh"
        string_val: "vhigh"
        string_val: "vhigh"
        string_val: "vhigh"
        string_val: "vhigh"
        string_val: "vhigh"
        string_val: "vhigh"
        string_val: "vhigh"
        string_val: "vhigh"
        string_val: "vhigh"
        string_val: "vhigh"
        string_val: "vhigh"
        string_val: "vhigh"
        string_val: "vhigh"
        string_val: "vhigh"
        string_val: "vhigh"
        string_val: "vhigh"
        string_val: "vhigh"
        string_val: "vhigh"
        string_val: "vhigh"
        string_val: "vhigh"
        string_val: "vhigh"
        string_val: "vhigh"
        string_val: "vhigh"
        string_val: "vhigh"
        string_val: "vhigh"
        string_val: "vhigh"
        string_val: "vhigh"
        string_val: "vhigh"
        string_val: "vhigh"
        string_val: "vhigh"
        string_val: "vhigh"
        string_val: "vhigh"
        string_val: "vhigh"
        string_val: "vhigh"
        string_val: "vhigh"
        string_val: "vhigh"
        string_val: "vhigh"
        string_val: "vhigh"
        string_val: "vhigh"
        string_val: "vhigh"
        string_val: "vhigh"
        string_val: "vhigh"
        string_val: "vhigh"
        string_val: "vhigh"
        string_val: "vhigh"
        string_val: "vhigh"
        string_val: "vhigh"
        string_val: "vhigh"
        string_val: "vhigh"
        string_val: "vhigh"
        string_val: "vhigh"
        string_val: "vhigh"
        string_val: "vhigh"
        string_val: "vhigh"
        string_val: "vhigh"
        string_val: "vhigh"
        string_val: "vhigh"
        string_val: "vhigh"
        string_val: "vhigh"
        string_val: "vhigh"
        string_val: "vhigh"
        string_val: "vhigh"
        string_val: "vhigh"
        string_val: "vhigh"
        string_val: "vhigh"
        string_val: "vhigh"
        string_val: "vhigh"
        string_val: "vhigh"
        string_val: "vhigh"
        string_val: "vhigh"
        string_val: "vhigh"
        string_val: "vhigh"
        string_val: "vhigh"
        string_val: "vhigh"
        string_val: "vhigh"
        string_val: "vhigh"
        string_val: "vhigh"
        string_val: "vhigh"
        string_val: "vhigh"
        string_val: "vhigh"
        string_val: "vhigh"
        string_val: "vhigh"
        string_val: "vhigh"
        string_val: "vhigh"
        string_val: "vhigh"
        string_val: "vhigh"
        string_val: "vhigh"
        string_val: "vhigh"
        string_val: "vhigh"
        string_val: "vhigh"
        string_val: "vhigh"
        string_val: "vhigh"
        string_val: "vhigh"
        string_val: "vhigh"
        string_val: "vhigh"
        string_val: "vhigh"
        string_val: "vhigh"
        string_val: "vhigh"
        string_val: "vhigh"
        string_val: "vhigh"
        string_val: "vhigh"
        string_val: "vhigh"
        string_val: "vhigh"
        string_val: "vhigh"
        string_val: "vhigh"
        string_val: "high"
        string_val: "high"
        string_val: "high"
        string_val: "high"
        string_val: "high"
        string_val: "high"
        string_val: "high"
        string_val: "high"
        string_val: "high"
        string_val: "high"
        string_val: "high"
        string_val: "high"
        string_val: "high"
        string_val: "high"
        string_val: "high"
        string_val: "high"
        string_val: "high"
        string_val: "high"
        string_val: "high"
        string_val: "high"
        string_val: "high"
        string_val: "high"
        string_val: "high"
        string_val: "high"
        string_val: "high"
        string_val: "high"
        string_val: "high"
        string_val: "high"
        string_val: "high"
        string_val: "high"
        string_val: "high"
        string_val: "high"
        string_val: "high"
        string_val: "high"
        string_val: "high"
        string_val: "high"
        string_val: "high"
        string_val: "high"
        string_val: "high"
        string_val: "high"
        string_val: "high"
        string_val: "high"
        string_val: "high"
        string_val: "high"
        string_val: "high"
        string_val: "high"
        string_val: "high"
        string_val: "high"
        string_val: "high"
        string_val: "high"
        string_val: "high"
        string_val: "high"
        string_val: "high"
        string_val: "high"
        string_val: "high"
        string_val: "high"
        string_val: "high"
        string_val: "high"
        string_val: "high"
        string_val: "high"
        string_val: "high"
        string_val: "high"
        string_val: "high"
        string_val: "high"
        string_val: "high"
        string_val: "high"
        string_val: "high"
        string_val: "high"
        string_val: "high"
        string_val: "high"
        string_val: "high"
        string_val: "high"
        string_val: "high"
        string_val: "high"
        string_val: "high"
        string_val: "high"
        string_val: "high"
        string_val: "high"
        string_val: "high"
        string_val: "high"
        string_val: "high"
        string_val: "high"
        string_val: "high"
        string_val: "high"
        string_val: "high"
        string_val: "high"
        string_val: "high"
        string_val: "high"
        string_val: "high"
        string_val: "high"
        string_val: "high"
        string_val: "high"
        string_val: "high"
        string_val: "high"
        string_val: "high"
        string_val: "high"
        string_val: "high"
        string_val: "high"
        string_val: "high"
        string_val: "high"
        string_val: "high"
        string_val: "high"
        string_val: "high"
        string_val: "high"
        string_val: "high"
        string_val: "high"
        string_val: "high"
        string_val: "high"
        string_val: "high"
        string_val: "high"
        string_val: "high"
        string_val: "high"
        string_val: "high"
        string_val: "high"
        string_val: "high"
        string_val: "high"
        string_val: "high"
        string_val: "high"
        string_val: "high"
        string_val: "high"
        string_val: "high"
        string_val: "high"
        string_val: "high"
        string_val: "high"
        string_val: "high"
        string_val: "high"
        string_val: "high"
        string_val: "high"
        string_val: "high"
        string_val: "high"
        string_val: "high"
        string_val: "high"
        string_val: "high"
        string_val: "high"
        string_val: "high"
        string_val: "high"
        string_val: "high"
        string_val: "high"
        string_val: "high"
        string_val: "high"
        string_val: "high"
        string_val: "high"
        string_val: "high"
        string_val: "high"
        string_val: "high"
        string_val: "high"
        string_val: "high"
        string_val: "high"
        string_val: "high"
        string_val: "high"
        string_val: "high"
        string_val: "high"
        string_val: "high"
        string_val: "high"
        string_val: "high"
        string_val: "high"
        string_val: "high"
        string_val: "high"
        string_val: "high"
        string_val: "high"
        string_val: "high"
        string_val: "high"
        string_val: "high"
        string_val: "high"
        string_val: "high"
        string_val: "high"
        string_val: "high"
        string_val: "high"
        string_val: "high"
        string_val: "high"
        string_val: "high"
        string_val: "high"
        string_val: "high"
        string_val: "high"
        string_val: "high"
        string_val: "high"
        string_val: "high"
        string_val: "high"
        string_val: "high"
        string_val: "high"
        string_val: "high"
        string_val: "high"
        string_val: "high"
        string_val: "high"
        string_val: "high"
        string_val: "high"
        string_val: "high"
        string_val: "high"
        string_val: "high"
        string_val: "high"
        string_val: "high"
        string_val: "high"
        string_val: "high"
        string_val: "high"
        string_val: "high"
        string_val: "high"
        string_val: "high"
        string_val: "high"
        string_val: "high"
        string_val: "high"
        string_val: "high"
        string_val: "high"
        string_val: "high"
        string_val: "high"
        string_val: "high"
        string_val: "high"
        string_val: "high"
        string_val: "high"
        string_val: "high"
        string_val: "high"
        string_val: "high"
        string_val: "high"
        string_val: "high"
        string_val: "high"
        string_val: "high"
        string_val: "high"
        string_val: "high"
        string_val: "high"
        string_val: "high"
        string_val: "high"
        string_val: "high"
        string_val: "high"
        string_val: "high"
        string_val: "high"
        string_val: "high"
        string_val: "high"
        string_val: "high"
        string_val: "high"
        string_val: "high"
        string_val: "high"
        string_val: "high"
        string_val: "high"
        string_val: "high"
        string_val: "high"
        string_val: "high"
        string_val: "high"
        string_val: "high"
        string_val: "high"
        string_val: "high"
        string_val: "high"
        string_val: "high"
        string_val: "high"
        string_val: "high"
        string_val: "high"
        string_val: "high"
        string_val: "high"
        string_val: "high"
        string_val: "high"
        string_val: "high"
        string_val: "high"
        string_val: "high"
        string_val: "high"
        string_val: "high"
        string_val: "high"
        string_val: "high"
        string_val: "high"
        string_val: "high"
        string_val: "high"
        string_val: "high"
        string_val: "high"
        string_val: "high"
        string_val: "high"
        string_val: "high"
        string_val: "high"
        string_val: "high"
        string_val: "high"
        string_val: "high"
        string_val: "high"
        string_val: "high"
        string_val: "high"
        string_val: "high"
        string_val: "high"
        string_val: "high"
        string_val: "high"
        string_val: "high"
        string_val: "high"
        string_val: "high"
        string_val: "high"
        string_val: "high"
        string_val: "high"
        string_val: "high"
        string_val: "high"
        string_val: "high"
        string_val: "high"
        string_val: "high"
        string_val: "high"
        string_val: "high"
        string_val: "high"
        string_val: "high"
        string_val: "high"
        string_val: "high"
        string_val: "high"
        string_val: "high"
        string_val: "high"
        string_val: "high"
        string_val: "high"
        string_val: "high"
        string_val: "high"
        string_val: "high"
        string_val: "high"
        string_val: "high"
        string_val: "high"
        string_val: "high"
        string_val: "high"
        string_val: "high"
        string_val: "high"
        string_val: "high"
        string_val: "high"
        string_val: "high"
        string_val: "high"
        string_val: "high"
        string_val: "high"
        string_val: "high"
        string_val: "high"
        string_val: "high"
        string_val: "high"
        string_val: "high"
        string_val: "high"
        string_val: "high"
        string_val: "high"
        string_val: "high"
        string_val: "high"
        string_val: "high"
        string_val: "high"
        string_val: "high"
        string_val: "high"
        string_val: "high"
        string_val: "high"
        string_val: "high"
        string_val: "high"
        string_val: "high"
        string_val: "high"
        string_val: "high"
        string_val: "high"
        string_val: "high"
        string_val: "high"
        string_val: "high"
        string_val: "high"
        string_val: "high"
        string_val: "high"
        string_val: "high"
        string_val: "high"
        string_val: "high"
        string_val: "high"
        string_val: "high"
        string_val: "high"
        string_val: "high"
        string_val: "high"
        string_val: "high"
        string_val: "high"
        string_val: "high"
        string_val: "high"
        string_val: "high"
        string_val: "high"
        string_val: "high"
        string_val: "high"
        string_val: "high"
        string_val: "high"
        string_val: "high"
        string_val: "high"
        string_val: "high"
        string_val: "high"
        string_val: "high"
        string_val: "high"
        string_val: "high"
        string_val: "high"
        string_val: "high"
        string_val: "high"
        string_val: "high"
        string_val: "high"
        string_val: "high"
        string_val: "high"
        string_val: "high"
        string_val: "high"
        string_val: "high"
        string_val: "high"
        string_val: "high"
        string_val: "high"
        string_val: "high"
        string_val: "high"
        string_val: "high"
        string_val: "high"
        string_val: "high"
        string_val: "high"
        string_val: "high"
        string_val: "high"
        string_val: "high"
        string_val: "high"
        string_val: "high"
        string_val: "high"
        string_val: "high"
        string_val: "high"
        string_val: "high"
        string_val: "high"
        string_val: "high"
        string_val: "high"
        string_val: "high"
        string_val: "high"
        string_val: "high"
        string_val: "high"
        string_val: "high"
        string_val: "high"
        string_val: "high"
        string_val: "high"
        string_val: "high"
        string_val: "high"
        string_val: "high"
        string_val: "high"
        string_val: "high"
        string_val: "high"
        string_val: "high"
        string_val: "high"
        string_val: "high"
        string_val: "high"
        string_val: "high"
        string_val: "high"
        string_val: "high"
        string_val: "high"
        string_val: "high"
        string_val: "high"
        string_val: "high"
        string_val: "high"
        string_val: "high"
        string_val: "high"
        string_val: "high"
        string_val: "high"
        string_val: "high"
        string_val: "high"
        string_val: "high"
        string_val: "high"
        string_val: "high"
        string_val: "med"
        string_val: "med"
        string_val: "med"
        string_val: "med"
        string_val: "med"
        string_val: "med"
        string_val: "med"
        string_val: "med"
        string_val: "med"
        string_val: "med"
        string_val: "med"
        string_val: "med"
        string_val: "med"
        string_val: "med"
        string_val: "med"
        string_val: "med"
        string_val: "med"
        string_val: "med"
        string_val: "med"
        string_val: "med"
        string_val: "med"
        string_val: "med"
        string_val: "med"
        string_val: "med"
        string_val: "med"
        string_val: "med"
        string_val: "med"
        string_val: "med"
        string_val: "med"
        string_val: "med"
        string_val: "med"
        string_val: "med"
        string_val: "med"
        string_val: "med"
        string_val: "med"
        string_val: "med"
        string_val: "med"
        string_val: "med"
        string_val: "med"
        string_val: "med"
        string_val: "med"
        string_val: "med"
        string_val: "med"
        string_val: "med"
        string_val: "med"
        string_val: "med"
        string_val: "med"
        string_val: "med"
        string_val: "med"
        string_val: "med"
        string_val: "med"
        string_val: "med"
        string_val: "med"
        string_val: "med"
        string_val: "med"
        string_val: "med"
        string_val: "med"
        string_val: "med"
        string_val: "med"
        string_val: "med"
        string_val: "med"
        string_val: "med"
        string_val: "med"
        string_val: "med"
        string_val: "med"
        string_val: "med"
        string_val: "med"
        string_val: "med"
        string_val: "med"
        string_val: "med"
        string_val: "med"
        string_val: "med"
        string_val: "med"
        string_val: "med"
        string_val: "med"
        string_val: "med"
        string_val: "med"
        string_val: "med"
        string_val: "med"
        string_val: "med"
        string_val: "med"
        string_val: "med"
        string_val: "med"
        string_val: "med"
        string_val: "med"
        string_val: "med"
        string_val: "med"
        string_val: "med"
        string_val: "med"
        string_val: "med"
        string_val: "med"
        string_val: "med"
        string_val: "med"
        string_val: "med"
        string_val: "med"
        string_val: "med"
        string_val: "med"
        string_val: "med"
        string_val: "med"
        string_val: "med"
        string_val: "med"
        string_val: "med"
        string_val: "med"
        string_val: "med"
        string_val: "med"
        string_val: "med"
        string_val: "med"
        string_val: "med"
        string_val: "med"
        string_val: "med"
        string_val: "med"
        string_val: "med"
        string_val: "med"
        string_val: "med"
        string_val: "med"
        string_val: "med"
        string_val: "med"
        string_val: "med"
        string_val: "med"
        string_val: "med"
        string_val: "med"
        string_val: "med"
        string_val: "med"
        string_val: "med"
        string_val: "med"
        string_val: "med"
        string_val: "med"
        string_val: "med"
        string_val: "med"
        string_val: "med"
        string_val: "med"
        string_val: "med"
        string_val: "med"
        string_val: "med"
        string_val: "med"
        string_val: "med"
        string_val: "med"
        string_val: "med"
        string_val: "med"
        string_val: "med"
        string_val: "med"
        string_val: "med"
        string_val: "med"
        string_val: "med"
        string_val: "med"
        string_val: "med"
        string_val: "med"
        string_val: "med"
        string_val: "med"
        string_val: "med"
        string_val: "med"
        string_val: "med"
        string_val: "med"
        string_val: "med"
        string_val: "med"
        string_val: "med"
        string_val: "med"
        string_val: "med"
        string_val: "med"
        string_val: "med"
        string_val: "med"
        string_val: "med"
        string_val: "med"
        string_val: "med"
        string_val: "med"
        string_val: "med"
        string_val: "med"
        string_val: "med"
        string_val: "med"
        string_val: "med"
        string_val: "med"
        string_val: "med"
        string_val: "med"
        string_val: "med"
        string_val: "med"
        string_val: "med"
        string_val: "med"
        string_val: "med"
        string_val: "med"
        string_val: "med"
        string_val: "med"
        string_val: "med"
        string_val: "med"
        string_val: "med"
        string_val: "med"
        string_val: "med"
        string_val: "med"
        string_val: "med"
        string_val: "med"
        string_val: "med"
        string_val: "med"
        string_val: "med"
        string_val: "med"
        string_val: "med"
        string_val: "med"
        string_val: "med"
        string_val: "med"
        string_val: "med"
        string_val: "med"
        string_val: "med"
        string_val: "med"
        string_val: "med"
        string_val: "med"
        string_val: "med"
        string_val: "med"
        string_val: "med"
        string_val: "med"
        string_val: "med"
        string_val: "med"
        string_val: "med"
        string_val: "med"
        string_val: "med"
        string_val: "med"
        string_val: "med"
        string_val: "med"
        string_val: "med"
        string_val: "med"
        string_val: "med"
        string_val: "med"
        string_val: "med"
        string_val: "med"
        string_val: "med"
        string_val: "med"
        string_val: "med"
        string_val: "med"
        string_val: "med"
        string_val: "med"
        string_val: "med"
        string_val: "med"
        string_val: "med"
        string_val: "med"
        string_val: "med"
        string_val: "med"
        string_val: "med"
        string_val: "med"
        string_val: "med"
        string_val: "med"
        string_val: "med"
        string_val: "med"
        string_val: "med"
        string_val: "med"
        string_val: "med"
        string_val: "med"
        string_val: "med"
        string_val: "med"
        string_val: "med"
        string_val: "med"
        string_val: "med"
        string_val: "med"
        string_val: "med"
        string_val: "med"
        string_val: "med"
        string_val: "med"
        string_val: "med"
        string_val: "med"
        string_val: "med"
        string_val: "med"
        string_val: "med"
        string_val: "med"
        string_val: "med"
        string_val: "med"
        string_val: "med"
        string_val: "med"
        string_val: "med"
        string_val: "med"
        string_val: "med"
        string_val: "med"
        string_val: "med"
        string_val: "med"
        string_val: "med"
        string_val: "med"
        string_val: "med"
        string_val: "med"
        string_val: "med"
        string_val: "med"
        string_val: "med"
        string_val: "med"
        string_val: "med"
        string_val: "med"
        string_val: "med"
        string_val: "med"
        string_val: "med"
        string_val: "med"
        string_val: "med"
        string_val: "med"
        string_val: "med"
        string_val: "med"
        string_val: "med"
        string_val: "med"
        string_val: "med"
        string_val: "med"
        string_val: "med"
        string_val: "med"
        string_val: "med"
        string_val: "med"
        string_val: "med"
        string_val: "med"
        string_val: "med"
        string_val: "med"
        string_val: "med"
        string_val: "med"
        string_val: "med"
        string_val: "med"
        string_val: "med"
        string_val: "med"
        string_val: "med"
        string_val: "med"
        string_val: "med"
        string_val: "med"
        string_val: "med"
        string_val: "med"
        string_val: "med"
        string_val: "med"
        string_val: "med"
        string_val: "med"
        string_val: "med"
        string_val: "med"
        string_val: "med"
        string_val: "med"
        string_val: "med"
        string_val: "med"
        string_val: "med"
        string_val: "med"
        string_val: "med"
        string_val: "med"
        string_val: "med"
        string_val: "med"
        string_val: "med"
        string_val: "med"
        string_val: "med"
        string_val: "med"
        string_val: "med"
        string_val: "med"
        string_val: "med"
        string_val: "med"
        string_val: "med"
        string_val: "med"
        string_val: "med"
        string_val: "med"
        string_val: "med"
        string_val: "med"
        string_val: "med"
        string_val: "med"
        string_val: "med"
        string_val: "med"
        string_val: "med"
        string_val: "med"
        string_val: "med"
        string_val: "med"
        string_val: "med"
        string_val: "med"
        string_val: "med"
        string_val: "med"
        string_val: "med"
        string_val: "med"
        string_val: "med"
        string_val: "med"
        string_val: "med"
        string_val: "med"
        string_val: "med"
        string_val: "med"
        string_val: "med"
        string_val: "med"
        string_val: "med"
        string_val: "med"
        string_val: "med"
        string_val: "med"
        string_val: "med"
        string_val: "med"
        string_val: "med"
        string_val: "med"
        string_val: "med"
        string_val: "med"
        string_val: "med"
        string_val: "med"
        string_val: "med"
        string_val: "med"
        string_val: "med"
        string_val: "med"
        string_val: "med"
        string_val: "med"
        string_val: "med"
        string_val: "med"
        string_val: "med"
        string_val: "med"
        string_val: "med"
        string_val: "med"
        string_val: "med"
        string_val: "med"
        string_val: "med"
        string_val: "med"
        string_val: "med"
        string_val: "med"
        string_val: "med"
        string_val: "med"
        string_val: "med"
        string_val: "med"
        string_val: "med"
        string_val: "med"
        string_val: "med"
        string_val: "med"
        string_val: "med"
        string_val: "med"
        string_val: "med"
        string_val: "med"
        string_val: "med"
        string_val: "med"
        string_val: "med"
        string_val: "med"
        string_val: "med"
        string_val: "med"
        string_val: "med"
        string_val: "med"
        string_val: "med"
        string_val: "med"
        string_val: "med"
        string_val: "med"
        string_val: "med"
        string_val: "med"
        string_val: "med"
        string_val: "med"
        string_val: "med"
        string_val: "med"
        string_val: "med"
        string_val: "med"
        string_val: "med"
        string_val: "med"
        string_val: "med"
        string_val: "med"
        string_val: "med"
        string_val: "med"
        string_val: "med"
        string_val: "low"
        string_val: "low"
        string_val: "low"
        string_val: "low"
        string_val: "low"
        string_val: "low"
        string_val: "low"
        string_val: "low"
        string_val: "low"
        string_val: "low"
        string_val: "low"
        string_val: "low"
        string_val: "low"
        string_val: "low"
        string_val: "low"
        string_val: "low"
        string_val: "low"
        string_val: "low"
        string_val: "low"
        string_val: "low"
        string_val: "low"
        string_val: "low"
        string_val: "low"
        string_val: "low"
        string_val: "low"
        string_val: "low"
        string_val: "low"
        string_val: "low"
        string_val: "low"
        string_val: "low"
        string_val: "low"
        string_val: "low"
        string_val: "low"
        string_val: "low"
        string_val: "low"
        string_val: "low"
        string_val: "low"
        string_val: "low"
        string_val: "low"
        string_val: "low"
        string_val: "low"
        string_val: "low"
        string_val: "low"
        string_val: "low"
        string_val: "low"
        string_val: "low"
        string_val: "low"
        string_val: "low"
        string_val: "low"
        string_val: "low"
        string_val: "low"
        string_val: "low"
        string_val: "low"
        string_val: "low"
        string_val: "low"
        string_val: "low"
        string_val: "low"
        string_val: "low"
        string_val: "low"
        string_val: "low"
        string_val: "low"
        string_val: "low"
        string_val: "low"
        string_val: "low"
        string_val: "low"
        string_val: "low"
        string_val: "low"
        string_val: "low"
        string_val: "low"
        string_val: "low"
        string_val: "low"
        string_val: "low"
        string_val: "low"
        string_val: "low"
        string_val: "low"
        string_val: "low"
        string_val: "low"
        string_val: "low"
        string_val: "low"
        string_val: "low"
        string_val: "low"
        string_val: "low"
        string_val: "low"
        string_val: "low"
        string_val: "low"
        string_val: "low"
        string_val: "low"
        string_val: "low"
        string_val: "low"
        string_val: "low"
        string_val: "low"
        string_val: "low"
        string_val: "low"
        string_val: "low"
        string_val: "low"
        string_val: "low"
        string_val: "low"
        string_val: "low"
        string_val: "low"
        string_val: "low"
        string_val: "low"
        string_val: "low"
        string_val: "low"
        string_val: "low"
        string_val: "low"
        string_val: "low"
        string_val: "low"
        string_val: "low"
        string_val: "low"
        string_val: "low"
        string_val: "low"
        string_val: "low"
        string_val: "low"
        string_val: "low"
        string_val: "low"
        string_val: "low"
        string_val: "low"
        string_val: "low"
        string_val: "low"
        string_val: "low"
        string_val: "low"
        string_val: "low"
        string_val: "low"
        string_val: "low"
        string_val: "low"
        string_val: "low"
        string_val: "low"
        string_val: "low"
        string_val: "low"
        string_val: "low"
        string_val: "low"
        string_val: "low"
        string_val: "low"
        string_val: "low"
        string_val: "low"
        string_val: "low"
        string_val: "low"
        string_val: "low"
        string_val: "low"
        string_val: "low"
        string_val: "low"
        string_val: "low"
        string_val: "low"
        string_val: "low"
        string_val: "low"
        string_val: "low"
        string_val: "low"
        string_val: "low"
        string_val: "low"
        string_val: "low"
        string_val: "low"
        string_val: "low"
        string_val: "low"
        string_val: "low"
        string_val: "low"
        string_val: "low"
        string_val: "low"
        string_val: "low"
        string_val: "low"
        string_val: "low"
        string_val: "low"
        string_val: "low"
        string_val: "low"
        string_val: "low"
        string_val: "low"
        string_val: "low"
        string_val: "low"
        string_val: "low"
        string_val: "low"
        string_val: "low"
        string_val: "low"
        string_val: "low"
        string_val: "low"
        string_val: "low"
        string_val: "low"
        string_val: "low"
        string_val: "low"
        string_val: "low"
        string_val: "low"
        string_val: "low"
        string_val: "low"
        string_val: "low"
        string_val: "low"
        string_val: "low"
        string_val: "low"
        string_val: "low"
        string_val: "low"
        string_val: "low"
        string_val: "low"
        string_val: "low"
        string_val: "low"
        string_val: "low"
        string_val: "low"
        string_val: "low"
        string_val: "low"
        string_val: "low"
        string_val: "low"
        string_val: "low"
        string_val: "low"
        string_val: "low"
        string_val: "low"
        string_val: "low"
        string_val: "low"
        string_val: "low"
        string_val: "low"
        string_val: "low"
        string_val: "low"
        string_val: "low"
        string_val: "low"
        string_val: "low"
        string_val: "low"
        string_val: "low"
        string_val: "low"
        string_val: "low"
        string_val: "low"
        string_val: "low"
        string_val: "low"
        string_val: "low"
        string_val: "low"
        string_val: "low"
        string_val: "low"
        string_val: "low"
        string_val: "low"
        string_val: "low"
        string_val: "low"
        string_val: "low"
        string_val: "low"
        string_val: "low"
        string_val: "low"
        string_val: "low"
        string_val: "low"
        string_val: "low"
        string_val: "low"
        string_val: "low"
        string_val: "low"
        string_val: "low"
        string_val: "low"
        string_val: "low"
        string_val: "low"
        string_val: "low"
        string_val: "low"
        string_val: "low"
        string_val: "low"
        string_val: "low"
        string_val: "low"
        string_val: "low"
        string_val: "low"
        string_val: "low"
        string_val: "low"
        string_val: "low"
        string_val: "low"
        string_val: "low"
        string_val: "low"
        string_val: "low"
        string_val: "low"
        string_val: "low"
        string_val: "low"
        string_val: "low"
        string_val: "low"
        string_val: "low"
        string_val: "low"
        string_val: "low"
        string_val: "low"
        string_val: "low"
        string_val: "low"
        string_val: "low"
        string_val: "low"
        string_val: "low"
        string_val: "low"
        string_val: "low"
        string_val: "low"
        string_val: "low"
        string_val: "low"
        string_val: "low"
        string_val: "low"
        string_val: "low"
        string_val: "low"
        string_val: "low"
        string_val: "low"
        string_val: "low"
        string_val: "low"
        string_val: "low"
        string_val: "low"
        string_val: "low"
        string_val: "low"
        string_val: "low"
        string_val: "low"
        string_val: "low"
        string_val: "low"
        string_val: "low"
        string_val: "low"
        string_val: "low"
        string_val: "low"
        string_val: "low"
        string_val: "low"
        string_val: "low"
        string_val: "low"
        string_val: "low"
        string_val: "low"
        string_val: "low"
        string_val: "low"
        string_val: "low"
        string_val: "low"
        string_val: "low"
        string_val: "low"
        string_val: "low"
        string_val: "low"
        string_val: "low"
        string_val: "low"
        string_val: "low"
        string_val: "low"
        string_val: "low"
        string_val: "low"
        string_val: "low"
        string_val: "low"
        string_val: "low"
        string_val: "low"
        string_val: "low"
        string_val: "low"
        string_val: "low"
        string_val: "low"
        string_val: "low"
        string_val: "low"
        string_val: "low"
        string_val: "low"
        string_val: "low"
        string_val: "low"
        string_val: "low"
        string_val: "low"
        string_val: "low"
        string_val: "low"
        string_val: "low"
        string_val: "low"
        string_val: "low"
        string_val: "low"
        string_val: "low"
        string_val: "low"
        string_val: "low"
        string_val: "low"
        string_val: "low"
        string_val: "low"
        string_val: "low"
        string_val: "low"
        string_val: "low"
        string_val: "low"
        string_val: "low"
        string_val: "low"
        string_val: "low"
        string_val: "low"
        string_val: "low"
        string_val: "low"
        string_val: "low"
        string_val: "low"
        string_val: "low"
        string_val: "low"
        string_val: "low"
        string_val: "low"
        string_val: "low"
        string_val: "low"
        string_val: "low"
        string_val: "low"
        string_val: "low"
        string_val: "low"
        string_val: "low"
        string_val: "low"
        string_val: "low"
        string_val: "low"
        string_val: "low"
        string_val: "low"
        string_val: "low"
        string_val: "low"
        string_val: "low"
        string_val: "low"
        string_val: "low"
        string_val: "low"
        string_val: "low"
        string_val: "low"
        string_val: "low"
        string_val: "low"
        string_val: "low"
        string_val: "low"
        string_val: "low"
        string_val: "low"
        string_val: "low"
        string_val: "low"
        string_val: "low"
        string_val: "low"
        string_val: "low"
        string_val: "low"
        string_val: "low"
        string_val: "low"
        string_val: "low"
        string_val: "low"
        string_val: "low"
        string_val: "low"
        string_val: "low"
        string_val: "low"
        string_val: "low"
        string_val: "low"
        string_val: "low"
        string_val: "low"
        string_val: "low"
        string_val: "low"
        string_val: "low"
        string_val: "low"
        string_val: "low"
        string_val: "low"
        string_val: "low"
        string_val: "low"
        string_val: "low"
        string_val: "low"
        string_val: "low"
        string_val: "low"
        string_val: "low"
        string_val: "low"
        string_val: "low"
        string_val: "low"
        string_val: "low"
        string_val: "low"
        string_val: "low"
        string_val: "low"
        string_val: "low"
        string_val: "low"
        string_val: "low"
        string_val: "low"
        string_val: "low"
        string_val: "low"
        string_val: "low"
        string_val: "low"
      }
    }
  }
}
node {
  name: "SparseTensor/shape"
  op: "Const"
  attr {
    key: "_output_shapes"
    value {
      list {
        shape {
          dim {
            size: 2
          }
        }
      }
    }
  }
  attr {
    key: "dtype"
    value {
      type: DT_INT64
    }
  }
  attr {
    key: "value"
    value {
      tensor {
        dtype: DT_INT64
        tensor_shape {
          dim {
            size: 2
          }
        }
        tensor_content: "\274\006\000\000\000\000\000\000\001\000\000\000\000\000\000\000"
      }
    }
  }
}
node {
  name: "SparseTensor_1/indices"
  op: "Const"
  attr {
    key: "_output_shapes"
    value {
      list {
        shape {
          dim {
            size: 1724
          }
          dim {
            size: 2
          }
        }
      }
    }
  }
  attr {
    key: "dtype"
    value {
      type: DT_INT64
    }
  }
  attr {
    key: "value"
    value {
      tensor {
        dtype: DT_INT64
        tensor_shape {
          dim {
            size: 1724
          }
          dim {
            size: 2
          }
        }
        tensor_content: "…"
      }
    }
  }
}
node {
  name: "SparseTensor_1/values"
  op: "Const"
  attr {
    key: "_output_shapes"
    value {
      list {
        shape {
          dim {
            size: 1724
          }
        }
      }
    }
  }
  attr {
    key: "dtype"
    value {
      type: DT_STRING
    }
  }
  attr {
    key: "value"
    value {
      tensor {
        dtype: DT_STRING
        tensor_shape {
          dim {
            size: 1724
          }
        }
        string_val: "vhigh"
        string_val: "vhigh"
        string_val: "vhigh"
        string_val: "vhigh"
        string_val: "vhigh"
        string_val: "vhigh"
        string_val: "vhigh"
        string_val: "vhigh"
        string_val: "vhigh"
        string_val: "vhigh"
        string_val: "vhigh"
        string_val: "vhigh"
        string_val: "vhigh"
        string_val: "vhigh"
        string_val: "vhigh"
        string_val: "vhigh"
        string_val: "vhigh"
        string_val: "vhigh"
        string_val: "vhigh"
        string_val: "vhigh"
        string_val: "vhigh"
        string_val: "vhigh"
        string_val: "vhigh"
        string_val: "vhigh"
        string_val: "vhigh"
        string_val: "vhigh"
        string_val: "vhigh"
        string_val: "vhigh"
        string_val: "vhigh"
        string_val: "vhigh"
        string_val: "vhigh"
        string_val: "vhigh"
        string_val: "vhigh"
        string_val: "vhigh"
        string_val: "vhigh"
        string_val: "vhigh"
        string_val: "vhigh"
        string_val: "vhigh"
        string_val: "vhigh"
        string_val: "vhigh"
        string_val: "vhigh"
        string_val: "vhigh"
        string_val: "vhigh"
        string_val: "vhigh"
        string_val: "vhigh"
        string_val: "vhigh"
        string_val: "vhigh"
        string_val: "vhigh"
        string_val: "vhigh"
        string_val: "vhigh"
        string_val: "vhigh"
        string_val: "vhigh"
        string_val: "vhigh"
        string_val: "vhigh"
        string_val: "vhigh"
        string_val: "vhigh"
        string_val: "vhigh"
        string_val: "vhigh"
        string_val: "vhigh"
        string_val: "vhigh"
        string_val: "vhigh"
        string_val: "vhigh"
        string_val: "vhigh"
        string_val: "vhigh"
        string_val: "vhigh"
        string_val: "vhigh"
        string_val: "vhigh"
        string_val: "vhigh"
        string_val: "vhigh"
        string_val: "vhigh"
        string_val: "vhigh"
        string_val: "vhigh"
        string_val: "vhigh"
        string_val: "vhigh"
        string_val: "vhigh"
        string_val: "vhigh"
        string_val: "vhigh"
        string_val: "vhigh"
        string_val: "vhigh"
        string_val: "vhigh"
        string_val: "vhigh"
        string_val: "vhigh"
        string_val: "vhigh"
        string_val: "vhigh"
        string_val: "vhigh"
        string_val: "vhigh"
        string_val: "vhigh"
        string_val: "vhigh"
        string_val: "vhigh"
        string_val: "vhigh"
        string_val: "vhigh"
        string_val: "vhigh"
        string_val: "vhigh"
        string_val: "vhigh"
        string_val: "vhigh"
        string_val: "vhigh"
        string_val: "vhigh"
        string_val: "vhigh"
        string_val: "vhigh"
        string_val: "vhigh"
        string_val: "vhigh"
        string_val: "vhigh"
        string_val: "vhigh"
        string_val: "vhigh"
        string_val: "vhigh"
        string_val: "vhigh"
        string_val: "vhigh"
        string_val: "vhigh"
        string_val: "high"
        string_val: "high"
        string_val: "high"
        string_val: "high"
        string_val: "high"
        string_val: "high"
        string_val: "high"
        string_val: "high"
        string_val: "high"
        string_val: "high"
        string_val: "high"
        string_val: "high"
        string_val: "high"
        string_val: "high"
        string_val: "high"
        string_val: "high"
        string_val: "high"
        string_val: "high"
        string_val: "high"
        string_val: "high"
        string_val: "high"
        string_val: "high"
        string_val: "high"
        string_val: "high"
        string_val: "high"
        string_val: "high"
        string_val: "high"
        string_val: "high"
        string_val: "high"
        string_val: "high"
        string_val: "high"
        string_val: "high"
        string_val: "high"
        string_val: "high"
        string_val: "high"
        string_val: "high"
        string_val: "high"
        string_val: "high"
        string_val: "high"
        string_val: "high"
        string_val: "high"
        string_val: "high"
        string_val: "high"
        string_val: "high"
        string_val: "high"
        string_val: "high"
        string_val: "high"
        string_val: "high"
        string_val: "high"
        string_val: "high"
        string_val: "high"
        string_val: "high"
        string_val: "high"
        string_val: "high"
        string_val: "high"
        string_val: "high"
        string_val: "high"
        string_val: "high"
        string_val: "high"
        string_val: "high"
        string_val: "high"
        string_val: "high"
        string_val: "high"
        string_val: "high"
        string_val: "high"
        string_val: "high"
        string_val: "high"
        string_val: "high"
        string_val: "high"
        string_val: "high"
        string_val: "high"
        string_val: "high"
        string_val: "high"
        string_val: "high"
        string_val: "high"
        string_val: "high"
        string_val: "high"
        string_val: "high"
        string_val: "high"
        string_val: "high"
        string_val: "high"
        string_val: "high"
        string_val: "high"
        string_val: "high"
        string_val: "high"
        string_val: "high"
        string_val: "high"
        string_val: "high"
        string_val: "high"
        string_val: "high"
        string_val: "high"
        string_val: "high"
        string_val: "high"
        string_val: "high"
        string_val: "high"
        string_val: "high"
        string_val: "high"
        string_val: "high"
        string_val: "high"
        string_val: "high"
        string_val: "high"
        string_val: "high"
        string_val: "high"
        string_val: "high"
        string_val: "high"
        string_val: "high"
        string_val: "high"
        string_val: "high"
        string_val: "med"
        string_val: "med"
        string_val: "med"
        string_val: "med"
        string_val: "med"
        string_val: "med"
        string_val: "med"
        string_val: "med"
        string_val: "med"
        string_val: "med"
        string_val: "med"
        string_val: "med"
        string_val: "med"
        string_val: "med"
        string_val: "med"
        string_val: "med"
        string_val: "med"
        string_val: "med"
        string_val: "med"
        string_val: "med"
        string_val: "med"
        string_val: "med"
        string_val: "med"
        string_val: "med"
        string_val: "med"
        string_val: "med"
        string_val: "med"
        string_val: "med"
        string_val: "med"
        string_val: "med"
        string_val: "med"
        string_val: "med"
        string_val: "med"
        string_val: "med"
        string_val: "med"
        string_val: "med"
        string_val: "med"
        string_val: "med"
        string_val: "med"
        string_val: "med"
        string_val: "med"
        string_val: "med"
        string_val: "med"
        string_val: "med"
        string_val: "med"
        string_val: "med"
        string_val: "med"
        string_val: "med"
        string_val: "med"
        string_val: "med"
        string_val: "med"
        string_val: "med"
        string_val: "med"
        string_val: "med"
        string_val: "med"
        string_val: "med"
        string_val: "med"
        string_val: "med"
        string_val: "med"
        string_val: "med"
        string_val: "med"
        string_val: "med"
        string_val: "med"
        string_val: "med"
        string_val: "med"
        string_val: "med"
        string_val: "med"
        string_val: "med"
        string_val: "med"
        string_val: "med"
        string_val: "med"
        string_val: "med"
        string_val: "med"
        string_val: "med"
        string_val: "med"
        string_val: "med"
        string_val: "med"
        string_val: "med"
        string_val: "med"
        string_val: "med"
        string_val: "med"
        string_val: "med"
        string_val: "med"
        string_val: "med"
        string_val: "med"
        string_val: "med"
        string_val: "med"
        string_val: "med"
        string_val: "med"
        string_val: "med"
        string_val: "med"
        string_val: "med"
        string_val: "med"
        string_val: "med"
        string_val: "med"
        string_val: "med"
        string_val: "med"
        string_val: "med"
        string_val: "med"
        string_val: "med"
        string_val: "med"
        string_val: "med"
        string_val: "med"
        string_val: "med"
        string_val: "med"
        string_val: "med"
        string_val: "med"
        string_val: "med"
        string_val: "low"
        string_val: "low"
        string_val: "low"
        string_val: "low"
        string_val: "low"
        string_val: "low"
        string_val: "low"
        string_val: "low"
        string_val: "low"
        string_val: "low"
        string_val: "low"
        string_val: "low"
        string_val: "low"
        string_val: "low"
        string_val: "low"
        string_val: "low"
        string_val: "low"
        string_val: "low"
        string_val: "low"
        string_val: "low"
        string_val: "low"
        string_val: "low"
        string_val: "low"
        string_val: "low"
        string_val: "low"
        string_val: "low"
        string_val: "low"
        string_val: "low"
        string_val: "low"
        string_val: "low"
        string_val: "low"
        string_val: "low"
        string_val: "low"
        string_val: "low"
        string_val: "low"
        string_val: "low"
        string_val: "low"
        string_val: "low"
        string_val: "low"
        string_val: "low"
        string_val: "low"
        string_val: "low"
        string_val: "low"
        string_val: "low"
        string_val: "low"
        string_val: "low"
        string_val: "low"
        string_val: "low"
        string_val: "low"
        string_val: "low"
        string_val: "low"
        string_val: "low"
        string_val: "low"
        string_val: "low"
        string_val: "low"
        string_val: "low"
        string_val: "low"
        string_val: "low"
        string_val: "low"
        string_val: "low"
        string_val: "low"
        string_val: "low"
        string_val: "low"
        string_val: "low"
        string_val: "low"
        string_val: "low"
        string_val: "low"
        string_val: "low"
        string_val: "low"
        string_val: "low"
        string_val: "low"
        string_val: "low"
        string_val: "low"
        string_val: "low"
        string_val: "low"
        string_val: "low"
        string_val: "low"
        string_val: "low"
        string_val: "low"
        string_val: "low"
        string_val: "low"
        string_val: "low"
        string_val: "low"
        string_val: "low"
        string_val: "low"
        string_val: "low"
        string_val: "low"
        string_val: "low"
        string_val: "low"
        string_val: "low"
        string_val: "low"
        string_val: "low"
        string_val: "low"
        string_val: "low"
        string_val: "low"
        string_val: "low"
        string_val: "low"
        string_val: "low"
        string_val: "low"
        string_val: "low"
        string_val: "low"
        string_val: "low"
        string_val: "low"
        string_val: "low"
        string_val: "low"
        string_val: "low"
        string_val: "low"
        string_val: "low"
        string_val: "vhigh"
        string_val: "vhigh"
        string_val: "vhigh"
        string_val: "vhigh"
        string_val: "vhigh"
        string_val: "vhigh"
        string_val: "vhigh"
        string_val: "vhigh"
        string_val: "vhigh"
        string_val: "vhigh"
        string_val: "vhigh"
        string_val: "vhigh"
        string_val: "vhigh"
        string_val: "vhigh"
        string_val: "vhigh"
        string_val: "vhigh"
        string_val: "vhigh"
        string_val: "vhigh"
        string_val: "vhigh"
        string_val: "vhigh"
        string_val: "vhigh"
        string_val: "vhigh"
        string_val: "vhigh"
        string_val: "vhigh"
        string_val: "vhigh"
        string_val: "vhigh"
        string_val: "vhigh"
        string_val: "vhigh"
        string_val: "vhigh"
        string_val: "vhigh"
        string_val: "vhigh"
        string_val: "vhigh"
        string_val: "vhigh"
        string_val: "vhigh"
        string_val: "vhigh"
        string_val: "vhigh"
        string_val: "vhigh"
        string_val: "vhigh"
        string_val: "vhigh"
        string_val: "vhigh"
        string_val: "vhigh"
        string_val: "vhigh"
        string_val: "vhigh"
        string_val: "vhigh"
        string_val: "vhigh"
        string_val: "vhigh"
        string_val: "vhigh"
        string_val: "vhigh"
        string_val: "vhigh"
        string_val: "vhigh"
        string_val: "vhigh"
        string_val: "vhigh"
        string_val: "vhigh"
        string_val: "vhigh"
        string_val: "vhigh"
        string_val: "vhigh"
        string_val: "vhigh"
        string_val: "vhigh"
        string_val: "vhigh"
        string_val: "vhigh"
        string_val: "vhigh"
        string_val: "vhigh"
        string_val: "vhigh"
        string_val: "vhigh"
        string_val: "vhigh"
        string_val: "vhigh"
        string_val: "vhigh"
        string_val: "vhigh"
        string_val: "vhigh"
        string_val: "vhigh"
        string_val: "vhigh"
        string_val: "vhigh"
        string_val: "vhigh"
        string_val: "vhigh"
        string_val: "vhigh"
        string_val: "vhigh"
        string_val: "vhigh"
        string_val: "vhigh"
        string_val: "vhigh"
        string_val: "vhigh"
        string_val: "vhigh"
        string_val: "vhigh"
        string_val: "vhigh"
        string_val: "vhigh"
        string_val: "vhigh"
        string_val: "vhigh"
        string_val: "vhigh"
        string_val: "vhigh"
        string_val: "vhigh"
        string_val: "vhigh"
        string_val: "vhigh"
        string_val: "vhigh"
        string_val: "vhigh"
        string_val: "vhigh"
        string_val: "vhigh"
        string_val: "vhigh"
        string_val: "vhigh"
        string_val: "vhigh"
        string_val: "vhigh"
        string_val: "vhigh"
        string_val: "vhigh"
        string_val: "vhigh"
        string_val: "vhigh"
        string_val: "vhigh"
        string_val: "vhigh"
        string_val: "vhigh"
        string_val: "vhigh"
        string_val: "high"
        string_val: "high"
        string_val: "high"
        string_val: "high"
        string_val: "high"
        string_val: "high"
        string_val: "high"
        string_val: "high"
        string_val: "high"
        string_val: "high"
        string_val: "high"
        string_val: "high"
        string_val: "high"
        string_val: "high"
        string_val: "high"
        string_val: "high"
        string_val: "high"
        string_val: "high"
        string_val: "high"
        string_val: "high"
        string_val: "high"
        string_val: "high"
        string_val: "high"
        string_val: "high"
        string_val: "high"
        string_val: "high"
        string_val: "high"
        string_val: "high"
        string_val: "high"
        string_val: "high"
        string_val: "high"
        string_val: "high"
        string_val: "high"
        string_val: "high"
        string_val: "high"
        string_val: "high"
        string_val: "high"
        string_val: "high"
        string_val: "high"
        string_val: "high"
        string_val: "high"
        string_val: "high"
        string_val: "high"
        string_val: "high"
        string_val: "high"
        string_val: "high"
        string_val: "high"
        string_val: "high"
        string_val: "high"
        string_val: "high"
        string_val: "high"
        string_val: "high"
        string_val: "high"
        string_val: "high"
        string_val: "high"
        string_val: "high"
        string_val: "high"
        string_val: "high"
        string_val: "high"
        string_val: "high"
        string_val: "high"
        string_val: "high"
        string_val: "high"
        string_val: "high"
        string_val: "high"
        string_val: "high"
        string_val: "high"
        string_val: "high"
        string_val: "high"
        string_val: "high"
        string_val: "high"
        string_val: "high"
        string_val: "high"
        string_val: "high"
        string_val: "high"
        string_val: "high"
        string_val: "high"
        string_val: "high"
        string_val: "high"
        string_val: "high"
        string_val: "high"
        string_val: "high"
        string_val: "high"
        string_val: "high"
        string_val: "high"
        string_val: "high"
        string_val: "high"
        string_val: "high"
        string_val: "high"
        string_val: "high"
        string_val: "high"
        string_val: "high"
        string_val: "high"
        string_val: "high"
        string_val: "high"
        string_val: "high"
        string_val: "high"
        string_val: "high"
        string_val: "high"
        string_val: "high"
        string_val: "high"
        string_val: "high"
        string_val: "high"
        string_val: "high"
        string_val: "high"
        string_val: "high"
        string_val: "high"
        string_val: "high"
        string_val: "med"
        string_val: "med"
        string_val: "med"
        string_val: "med"
        string_val: "med"
        string_val: "med"
        string_val: "med"
        string_val: "med"
        string_val: "med"
        string_val: "med"
        string_val: "med"
        string_val: "med"
        string_val: "med"
        string_val: "med"
        string_val: "med"
        string_val: "med"
        string_val: "med"
        string_val: "med"
        string_val: "med"
        string_val: "med"
        string_val: "med"
        string_val: "med"
        string_val: "med"
        string_val: "med"
        string_val: "med"
        string_val: "med"
        string_val: "med"
        string_val: "med"
        string_val: "med"
        string_val: "med"
        string_val: "med"
        string_val: "med"
        string_val: "med"
        string_val: "med"
        string_val: "med"
        string_val: "med"
        string_val: "med"
        string_val: "med"
        string_val: "med"
        string_val: "med"
        string_val: "med"
        string_val: "med"
        string_val: "med"
        string_val: "med"
        string_val: "med"
        string_val: "med"
        string_val: "med"
        string_val: "med"
        string_val: "med"
        string_val: "med"
        string_val: "med"
        string_val: "med"
        string_val: "med"
        string_val: "med"
        string_val: "med"
        string_val: "med"
        string_val: "med"
        string_val: "med"
        string_val: "med"
        string_val: "med"
        string_val: "med"
        string_val: "med"
        string_val: "med"
        string_val: "med"
        string_val: "med"
        string_val: "med"
        string_val: "med"
        string_val: "med"
        string_val: "med"
        string_val: "med"
        string_val: "med"
        string_val: "med"
        string_val: "med"
        string_val: "med"
        string_val: "med"
        string_val: "med"
        string_val: "med"
        string_val: "med"
        string_val: "med"
        string_val: "med"
        string_val: "med"
        string_val: "med"
        string_val: "med"
        string_val: "med"
        string_val: "med"
        string_val: "med"
        string_val: "med"
        string_val: "med"
        string_val: "med"
        string_val: "med"
        string_val: "med"
        string_val: "med"
        string_val: "med"
        string_val: "med"
        string_val: "med"
        string_val: "med"
        string_val: "med"
        string_val: "med"
        string_val: "med"
        string_val: "med"
        string_val: "med"
        string_val: "med"
        string_val: "med"
        string_val: "med"
        string_val: "med"
        string_val: "med"
        string_val: "med"
        string_val: "med"
        string_val: "low"
        string_val: "low"
        string_val: "low"
        string_val: "low"
        string_val: "low"
        string_val: "low"
        string_val: "low"
        string_val: "low"
        string_val: "low"
        string_val: "low"
        string_val: "low"
        string_val: "low"
        string_val: "low"
        string_val: "low"
        string_val: "low"
        string_val: "low"
        string_val: "low"
        string_val: "low"
        string_val: "low"
        string_val: "low"
        string_val: "low"
        string_val: "low"
        string_val: "low"
        string_val: "low"
        string_val: "low"
        string_val: "low"
        string_val: "low"
        string_val: "low"
        string_val: "low"
        string_val: "low"
        string_val: "low"
        string_val: "low"
        string_val: "low"
        string_val: "low"
        string_val: "low"
        string_val: "low"
        string_val: "low"
        string_val: "low"
        string_val: "low"
        string_val: "low"
        string_val: "low"
        string_val: "low"
        string_val: "low"
        string_val: "low"
        string_val: "low"
        string_val: "low"
        string_val: "low"
        string_val: "low"
        string_val: "low"
        string_val: "low"
        string_val: "low"
        string_val: "low"
        string_val: "low"
        string_val: "low"
        string_val: "low"
        string_val: "low"
        string_val: "low"
        string_val: "low"
        string_val: "low"
        string_val: "low"
        string_val: "low"
        string_val: "low"
        string_val: "low"
        string_val: "low"
        string_val: "low"
        string_val: "low"
        string_val: "low"
        string_val: "low"
        string_val: "low"
        string_val: "low"
        string_val: "low"
        string_val: "low"
        string_val: "low"
        string_val: "low"
        string_val: "low"
        string_val: "low"
        string_val: "low"
        string_val: "low"
        string_val: "low"
        string_val: "low"
        string_val: "low"
        string_val: "low"
        string_val: "low"
        string_val: "low"
        string_val: "low"
        string_val: "low"
        string_val: "low"
        string_val: "low"
        string_val: "low"
        string_val: "low"
        string_val: "low"
        string_val: "low"
        string_val: "low"
        string_val: "low"
        string_val: "low"
        string_val: "low"
        string_val: "low"
        string_val: "low"
        string_val: "low"
        string_val: "low"
        string_val: "low"
        string_val: "low"
        string_val: "low"
        string_val: "low"
        string_val: "low"
        string_val: "low"
        string_val: "low"
        string_val: "low"
        string_val: "vhigh"
        string_val: "vhigh"
        string_val: "vhigh"
        string_val: "vhigh"
        string_val: "vhigh"
        string_val: "vhigh"
        string_val: "vhigh"
        string_val: "vhigh"
        string_val: "vhigh"
        string_val: "vhigh"
        string_val: "vhigh"
        string_val: "vhigh"
        string_val: "vhigh"
        string_val: "vhigh"
        string_val: "vhigh"
        string_val: "vhigh"
        string_val: "vhigh"
        string_val: "vhigh"
        string_val: "vhigh"
        string_val: "vhigh"
        string_val: "vhigh"
        string_val: "vhigh"
        string_val: "vhigh"
        string_val: "vhigh"
        string_val: "vhigh"
        string_val: "vhigh"
        string_val: "vhigh"
        string_val: "vhigh"
        string_val: "vhigh"
        string_val: "vhigh"
        string_val: "vhigh"
        string_val: "vhigh"
        string_val: "vhigh"
        string_val: "vhigh"
        string_val: "vhigh"
        string_val: "vhigh"
        string_val: "vhigh"
        string_val: "vhigh"
        string_val: "vhigh"
        string_val: "vhigh"
        string_val: "vhigh"
        string_val: "vhigh"
        string_val: "vhigh"
        string_val: "vhigh"
        string_val: "vhigh"
        string_val: "vhigh"
        string_val: "vhigh"
        string_val: "vhigh"
        string_val: "vhigh"
        string_val: "vhigh"
        string_val: "vhigh"
        string_val: "vhigh"
        string_val: "vhigh"
        string_val: "vhigh"
        string_val: "vhigh"
        string_val: "vhigh"
        string_val: "vhigh"
        string_val: "vhigh"
        string_val: "vhigh"
        string_val: "vhigh"
        string_val: "vhigh"
        string_val: "vhigh"
        string_val: "vhigh"
        string_val: "vhigh"
        string_val: "vhigh"
        string_val: "vhigh"
        string_val: "vhigh"
        string_val: "vhigh"
        string_val: "vhigh"
        string_val: "vhigh"
        string_val: "vhigh"
        string_val: "vhigh"
        string_val: "vhigh"
        string_val: "vhigh"
        string_val: "vhigh"
        string_val: "vhigh"
        string_val: "vhigh"
        string_val: "vhigh"
        string_val: "vhigh"
        string_val: "vhigh"
        string_val: "vhigh"
        string_val: "vhigh"
        string_val: "vhigh"
        string_val: "vhigh"
        string_val: "vhigh"
        string_val: "vhigh"
        string_val: "vhigh"
        string_val: "vhigh"
        string_val: "vhigh"
        string_val: "vhigh"
        string_val: "vhigh"
        string_val: "vhigh"
        string_val: "vhigh"
        string_val: "vhigh"
        string_val: "vhigh"
        string_val: "vhigh"
        string_val: "vhigh"
        string_val: "vhigh"
        string_val: "vhigh"
        string_val: "vhigh"
        string_val: "vhigh"
        string_val: "vhigh"
        string_val: "vhigh"
        string_val: "vhigh"
        string_val: "vhigh"
        string_val: "vhigh"
        string_val: "vhigh"
        string_val: "vhigh"
        string_val: "high"
        string_val: "high"
        string_val: "high"
        string_val: "high"
        string_val: "high"
        string_val: "high"
        string_val: "high"
        string_val: "high"
        string_val: "high"
        string_val: "high"
        string_val: "high"
        string_val: "high"
        string_val: "high"
        string_val: "high"
        string_val: "high"
        string_val: "high"
        string_val: "high"
        string_val: "high"
        string_val: "high"
        string_val: "high"
        string_val: "high"
        string_val: "high"
        string_val: "high"
        string_val: "high"
        string_val: "high"
        string_val: "high"
        string_val: "high"
        string_val: "high"
        string_val: "high"
        string_val: "high"
        string_val: "high"
        string_val: "high"
        string_val: "high"
        string_val: "high"
        string_val: "high"
        string_val: "high"
        string_val: "high"
        string_val: "high"
        string_val: "high"
        string_val: "high"
        string_val: "high"
        string_val: "high"
        string_val: "high"
        string_val: "high"
        string_val: "high"
        string_val: "high"
        string_val: "high"
        string_val: "high"
        string_val: "high"
        string_val: "high"
        string_val: "high"
        string_val: "high"
        string_val: "high"
        string_val: "high"
        string_val: "high"
        string_val: "high"
        string_val: "high"
        string_val: "high"
        string_val: "high"
        string_val: "high"
        string_val: "high"
        string_val: "high"
        string_val: "high"
        string_val: "high"
        string_val: "high"
        string_val: "high"
        string_val: "high"
        string_val: "high"
        string_val: "high"
        string_val: "high"
        string_val: "high"
        string_val: "high"
        string_val: "high"
        string_val: "high"
        string_val: "high"
        string_val: "high"
        string_val: "high"
        string_val: "high"
        string_val: "high"
        string_val: "high"
        string_val: "high"
        string_val: "high"
        string_val: "high"
        string_val: "high"
        string_val: "high"
        string_val: "high"
        string_val: "high"
        string_val: "high"
        string_val: "high"
        string_val: "high"
        string_val: "high"
        string_val: "high"
        string_val: "high"
        string_val: "high"
        string_val: "high"
        string_val: "high"
        string_val: "high"
        string_val: "high"
        string_val: "high"
        string_val: "high"
        string_val: "high"
        string_val: "high"
        string_val: "high"
        string_val: "high"
        string_val: "high"
        string_val: "high"
        string_val: "high"
        string_val: "high"
        string_val: "med"
        string_val: "med"
        string_val: "med"
        string_val: "med"
        string_val: "med"
        string_val: "med"
        string_val: "med"
        string_val: "med"
        string_val: "med"
        string_val: "med"
        string_val: "med"
        string_val: "med"
        string_val: "med"
        string_val: "med"
        string_val: "med"
        string_val: "med"
        string_val: "med"
        string_val: "med"
        string_val: "med"
        string_val: "med"
        string_val: "med"
        string_val: "med"
        string_val: "med"
        string_val: "med"
        string_val: "med"
        string_val: "med"
        string_val: "med"
        string_val: "med"
        string_val: "med"
        string_val: "med"
        string_val: "med"
        string_val: "med"
        string_val: "med"
        string_val: "med"
        string_val: "med"
        string_val: "med"
        string_val: "med"
        string_val: "med"
        string_val: "med"
        string_val: "med"
        string_val: "med"
        string_val: "med"
        string_val: "med"
        string_val: "med"
        string_val: "med"
        string_val: "med"
        string_val: "med"
        string_val: "med"
        string_val: "med"
        string_val: "med"
        string_val: "med"
        string_val: "med"
        string_val: "med"
        string_val: "med"
        string_val: "med"
        string_val: "med"
        string_val: "med"
        string_val: "med"
        string_val: "med"
        string_val: "med"
        string_val: "med"
        string_val: "med"
        string_val: "med"
        string_val: "med"
        string_val: "med"
        string_val: "med"
        string_val: "med"
        string_val: "med"
        string_val: "med"
        string_val: "med"
        string_val: "med"
        string_val: "med"
        string_val: "med"
        string_val: "med"
        string_val: "med"
        string_val: "med"
        string_val: "med"
        string_val: "med"
        string_val: "med"
        string_val: "med"
        string_val: "med"
        string_val: "med"
        string_val: "med"
        string_val: "med"
        string_val: "med"
        string_val: "med"
        string_val: "med"
        string_val: "med"
        string_val: "med"
        string_val: "med"
        string_val: "med"
        string_val: "med"
        string_val: "med"
        string_val: "med"
        string_val: "med"
        string_val: "med"
        string_val: "med"
        string_val: "med"
        string_val: "med"
        string_val: "med"
        string_val: "med"
        string_val: "med"
        string_val: "med"
        string_val: "med"
        string_val: "med"
        string_val: "med"
        string_val: "med"
        string_val: "med"
        string_val: "low"
        string_val: "low"
        string_val: "low"
        string_val: "low"
        string_val: "low"
        string_val: "low"
        string_val: "low"
        string_val: "low"
        string_val: "low"
        string_val: "low"
        string_val: "low"
        string_val: "low"
        string_val: "low"
        string_val: "low"
        string_val: "low"
        string_val: "low"
        string_val: "low"
        string_val: "low"
        string_val: "low"
        string_val: "low"
        string_val: "low"
        string_val: "low"
        string_val: "low"
        string_val: "low"
        string_val: "low"
        string_val: "low"
        string_val: "low"
        string_val: "low"
        string_val: "low"
        string_val: "low"
        string_val: "low"
        string_val: "low"
        string_val: "low"
        string_val: "low"
        string_val: "low"
        string_val: "low"
        string_val: "low"
        string_val: "low"
        string_val: "low"
        string_val: "low"
        string_val: "low"
        string_val: "low"
        string_val: "low"
        string_val: "low"
        string_val: "low"
        string_val: "low"
        string_val: "low"
        string_val: "low"
        string_val: "low"
        string_val: "low"
        string_val: "low"
        string_val: "low"
        string_val: "low"
        string_val: "low"
        string_val: "low"
        string_val: "low"
        string_val: "low"
        string_val: "low"
        string_val: "low"
        string_val: "low"
        string_val: "low"
        string_val: "low"
        string_val: "low"
        string_val: "low"
        string_val: "low"
        string_val: "low"
        string_val: "low"
        string_val: "low"
        string_val: "low"
        string_val: "low"
        string_val: "low"
        string_val: "low"
        string_val: "low"
        string_val: "low"
        string_val: "low"
        string_val: "low"
        string_val: "low"
        string_val: "low"
        string_val: "low"
        string_val: "low"
        string_val: "low"
        string_val: "low"
        string_val: "low"
        string_val: "low"
        string_val: "low"
        string_val: "low"
        string_val: "low"
        string_val: "low"
        string_val: "low"
        string_val: "low"
        string_val: "low"
        string_val: "low"
        string_val: "low"
        string_val: "low"
        string_val: "low"
        string_val: "low"
        string_val: "low"
        string_val: "low"
        string_val: "low"
        string_val: "low"
        string_val: "low"
        string_val: "low"
        string_val: "low"
        string_val: "low"
        string_val: "low"
        string_val: "low"
        string_val: "low"
        string_val: "low"
        string_val: "vhigh"
        string_val: "vhigh"
        string_val: "vhigh"
        string_val: "vhigh"
        string_val: "vhigh"
        string_val: "vhigh"
        string_val: "vhigh"
        string_val: "vhigh"
        string_val: "vhigh"
        string_val: "vhigh"
        string_val: "vhigh"
        string_val: "vhigh"
        string_val: "vhigh"
        string_val: "vhigh"
        string_val: "vhigh"
        string_val: "vhigh"
        string_val: "vhigh"
        string_val: "vhigh"
        string_val: "vhigh"
        string_val: "vhigh"
        string_val: "vhigh"
        string_val: "vhigh"
        string_val: "vhigh"
        string_val: "vhigh"
        string_val: "vhigh"
        string_val: "vhigh"
        string_val: "vhigh"
        string_val: "vhigh"
        string_val: "vhigh"
        string_val: "vhigh"
        string_val: "vhigh"
        string_val: "vhigh"
        string_val: "vhigh"
        string_val: "vhigh"
        string_val: "vhigh"
        string_val: "vhigh"
        string_val: "vhigh"
        string_val: "vhigh"
        string_val: "vhigh"
        string_val: "vhigh"
        string_val: "vhigh"
        string_val: "vhigh"
        string_val: "vhigh"
        string_val: "vhigh"
        string_val: "vhigh"
        string_val: "vhigh"
        string_val: "vhigh"
        string_val: "vhigh"
        string_val: "vhigh"
        string_val: "vhigh"
        string_val: "vhigh"
        string_val: "vhigh"
        string_val: "vhigh"
        string_val: "vhigh"
        string_val: "vhigh"
        string_val: "vhigh"
        string_val: "vhigh"
        string_val: "vhigh"
        string_val: "vhigh"
        string_val: "vhigh"
        string_val: "vhigh"
        string_val: "vhigh"
        string_val: "vhigh"
        string_val: "vhigh"
        string_val: "vhigh"
        string_val: "vhigh"
        string_val: "vhigh"
        string_val: "vhigh"
        string_val: "vhigh"
        string_val: "vhigh"
        string_val: "vhigh"
        string_val: "vhigh"
        string_val: "vhigh"
        string_val: "vhigh"
        string_val: "vhigh"
        string_val: "vhigh"
        string_val: "vhigh"
        string_val: "vhigh"
        string_val: "vhigh"
        string_val: "vhigh"
        string_val: "vhigh"
        string_val: "vhigh"
        string_val: "vhigh"
        string_val: "vhigh"
        string_val: "vhigh"
        string_val: "vhigh"
        string_val: "vhigh"
        string_val: "vhigh"
        string_val: "vhigh"
        string_val: "vhigh"
        string_val: "vhigh"
        string_val: "vhigh"
        string_val: "vhigh"
        string_val: "vhigh"
        string_val: "vhigh"
        string_val: "vhigh"
        string_val: "vhigh"
        string_val: "vhigh"
        string_val: "vhigh"
        string_val: "vhigh"
        string_val: "vhigh"
        string_val: "vhigh"
        string_val: "vhigh"
        string_val: "vhigh"
        string_val: "vhigh"
        string_val: "vhigh"
        string_val: "vhigh"
        string_val: "vhigh"
        string_val: "high"
        string_val: "high"
        string_val: "high"
        string_val: "high"
        string_val: "high"
        string_val: "high"
        string_val: "high"
        string_val: "high"
        string_val: "high"
        string_val: "high"
        string_val: "high"
        string_val: "high"
        string_val: "high"
        string_val: "high"
        string_val: "high"
        string_val: "high"
        string_val: "high"
        string_val: "high"
        string_val: "high"
        string_val: "high"
        string_val: "high"
        string_val: "high"
        string_val: "high"
        string_val: "high"
        string_val: "high"
        string_val: "high"
        string_val: "high"
        string_val: "high"
        string_val: "high"
        string_val: "high"
        string_val: "high"
        string_val: "high"
        string_val: "high"
        string_val: "high"
        string_val: "high"
        string_val: "high"
        string_val: "high"
        string_val: "high"
        string_val: "high"
        string_val: "high"
        string_val: "high"
        string_val: "high"
        string_val: "high"
        string_val: "high"
        string_val: "high"
        string_val: "high"
        string_val: "high"
        string_val: "high"
        string_val: "high"
        string_val: "high"
        string_val: "high"
        string_val: "high"
        string_val: "high"
        string_val: "high"
        string_val: "high"
        string_val: "high"
        string_val: "high"
        string_val: "high"
        string_val: "high"
        string_val: "high"
        string_val: "high"
        string_val: "high"
        string_val: "high"
        string_val: "high"
        string_val: "high"
        string_val: "high"
        string_val: "high"
        string_val: "high"
        string_val: "high"
        string_val: "high"
        string_val: "high"
        string_val: "high"
        string_val: "high"
        string_val: "high"
        string_val: "high"
        string_val: "high"
        string_val: "high"
        string_val: "high"
        string_val: "high"
        string_val: "high"
        string_val: "high"
        string_val: "high"
        string_val: "high"
        string_val: "high"
        string_val: "high"
        string_val: "high"
        string_val: "high"
        string_val: "high"
        string_val: "high"
        string_val: "high"
        string_val: "high"
        string_val: "high"
        string_val: "high"
        string_val: "high"
        string_val: "high"
        string_val: "high"
        string_val: "high"
        string_val: "high"
        string_val: "high"
        string_val: "high"
        string_val: "high"
        string_val: "high"
        string_val: "high"
        string_val: "high"
        string_val: "high"
        string_val: "high"
        string_val: "high"
        string_val: "high"
        string_val: "med"
        string_val: "med"
        string_val: "med"
        string_val: "med"
        string_val: "med"
        string_val: "med"
        string_val: "med"
        string_val: "med"
        string_val: "med"
        string_val: "med"
        string_val: "med"
        string_val: "med"
        string_val: "med"
        string_val: "med"
        string_val: "med"
        string_val: "med"
        string_val: "med"
        string_val: "med"
        string_val: "med"
        string_val: "med"
        string_val: "med"
        string_val: "med"
        string_val: "med"
        string_val: "med"
        string_val: "med"
        string_val: "med"
        string_val: "med"
        string_val: "med"
        string_val: "med"
        string_val: "med"
        string_val: "med"
        string_val: "med"
        string_val: "med"
        string_val: "med"
        string_val: "med"
        string_val: "med"
        string_val: "med"
        string_val: "med"
        string_val: "med"
        string_val: "med"
        string_val: "med"
        string_val: "med"
        string_val: "med"
        string_val: "med"
        string_val: "med"
        string_val: "med"
        string_val: "med"
        string_val: "med"
        string_val: "med"
        string_val: "med"
        string_val: "med"
        string_val: "med"
        string_val: "med"
        string_val: "med"
        string_val: "med"
        string_val: "med"
        string_val: "med"
        string_val: "med"
        string_val: "med"
        string_val: "med"
        string_val: "med"
        string_val: "med"
        string_val: "med"
        string_val: "med"
        string_val: "med"
        string_val: "med"
        string_val: "med"
        string_val: "med"
        string_val: "med"
        string_val: "med"
        string_val: "med"
        string_val: "med"
        string_val: "med"
        string_val: "med"
        string_val: "med"
        string_val: "med"
        string_val: "med"
        string_val: "med"
        string_val: "med"
        string_val: "med"
        string_val: "med"
        string_val: "med"
        string_val: "med"
        string_val: "med"
        string_val: "med"
        string_val: "med"
        string_val: "med"
        string_val: "med"
        string_val: "med"
        string_val: "med"
        string_val: "med"
        string_val: "med"
        string_val: "med"
        string_val: "med"
        string_val: "med"
        string_val: "med"
        string_val: "med"
        string_val: "med"
        string_val: "med"
        string_val: "med"
        string_val: "med"
        string_val: "med"
        string_val: "med"
        string_val: "med"
        string_val: "med"
        string_val: "med"
        string_val: "med"
        string_val: "med"
        string_val: "low"
        string_val: "low"
        string_val: "low"
        string_val: "low"
        string_val: "low"
        string_val: "low"
        string_val: "low"
        string_val: "low"
        string_val: "low"
        string_val: "low"
        string_val: "low"
        string_val: "low"
        string_val: "low"
        string_val: "low"
        string_val: "low"
        string_val: "low"
        string_val: "low"
        string_val: "low"
        string_val: "low"
        string_val: "low"
        string_val: "low"
        string_val: "low"
        string_val: "low"
        string_val: "low"
        string_val: "low"
        string_val: "low"
        string_val: "low"
        string_val: "low"
        string_val: "low"
        string_val: "low"
        string_val: "low"
        string_val: "low"
        string_val: "low"
        string_val: "low"
        string_val: "low"
        string_val: "low"
        string_val: "low"
        string_val: "low"
        string_val: "low"
        string_val: "low"
        string_val: "low"
        string_val: "low"
        string_val: "low"
        string_val: "low"
        string_val: "low"
        string_val: "low"
        string_val: "low"
        string_val: "low"
        string_val: "low"
        string_val: "low"
        string_val: "low"
        string_val: "low"
        string_val: "low"
        string_val: "low"
        string_val: "low"
        string_val: "low"
        string_val: "low"
        string_val: "low"
        string_val: "low"
        string_val: "low"
        string_val: "low"
        string_val: "low"
        string_val: "low"
        string_val: "low"
        string_val: "low"
        string_val: "low"
        string_val: "low"
        string_val: "low"
        string_val: "low"
        string_val: "low"
        string_val: "low"
        string_val: "low"
        string_val: "low"
        string_val: "low"
        string_val: "low"
        string_val: "low"
        string_val: "low"
        string_val: "low"
        string_val: "low"
        string_val: "low"
        string_val: "low"
        string_val: "low"
        string_val: "low"
        string_val: "low"
        string_val: "low"
        string_val: "low"
        string_val: "low"
        string_val: "low"
        string_val: "low"
        string_val: "low"
        string_val: "low"
        string_val: "low"
        string_val: "low"
        string_val: "low"
        string_val: "low"
        string_val: "low"
        string_val: "low"
        string_val: "low"
        string_val: "low"
        string_val: "low"
        string_val: "low"
        string_val: "low"
        string_val: "low"
        string_val: "low"
        string_val: "low"
      }
    }
  }
}
node {
  name: "SparseTensor_1/shape"
  op: "Const"
  attr {
    key: "_output_shapes"
    value {
      list {
        shape {
          dim {
            size: 2
          }
        }
      }
    }
  }
  attr {
    key: "dtype"
    value {
      type: DT_INT64
    }
  }
  attr {
    key: "value"
    value {
      tensor {
        dtype: DT_INT64
        tensor_shape {
          dim {
            size: 2
          }
        }
        tensor_content: "\274\006\000\000\000\000\000\000\001\000\000\000\000\000\000\000"
      }
    }
  }
}
node {
  name: "SparseTensor_2/indices"
  op: "Const"
  attr {
    key: "_output_shapes"
    value {
      list {
        shape {
          dim {
            size: 1724
          }
          dim {
            size: 2
          }
        }
      }
    }
  }
  attr {
    key: "dtype"
    value {
      type: DT_INT64
    }
  }
  attr {
    key: "value"
    value {
      tensor {
        dtype: DT_INT64
        tensor_shape {
          dim {
            size: 1724
          }
          dim {
            size: 2
          }
        }
        tensor_content: "…"
      }
    }
  }
}
node {
  name: "SparseTensor_2/values"
  op: "Const"
  attr {
    key: "_output_shapes"
    value {
      list {
        shape {
          dim {
            size: 1724
          }
        }
      }
    }
  }
  attr {
    key: "dtype"
    value {
      type: DT_STRING
    }
  }
  attr {
    key: "value"
    value {
      tensor {
        dtype: DT_STRING
        tensor_shape {
          dim {
            size: 1724
          }
        }
        string_val: "2"
        string_val: "2"
        string_val: "2"
        string_val: "2"
        string_val: "2"
        string_val: "2"
        string_val: "2"
        string_val: "2"
        string_val: "2"
        string_val: "2"
        string_val: "2"
        string_val: "2"
        string_val: "2"
        string_val: "2"
        string_val: "2"
        string_val: "2"
        string_val: "2"
        string_val: "2"
        string_val: "2"
        string_val: "2"
        string_val: "2"
        string_val: "2"
        string_val: "2"
        string_val: "2"
        string_val: "2"
        string_val: "2"
        string_val: "2"
        string_val: "3"
        string_val: "3"
        string_val: "3"
        string_val: "3"
        string_val: "3"
        string_val: "3"
        string_val: "3"
        string_val: "3"
        string_val: "3"
        string_val: "3"
        string_val: "3"
        string_val: "3"
        string_val: "3"
        string_val: "3"
        string_val: "3"
        string_val: "3"
        string_val: "3"
        string_val: "3"
        string_val: "3"
        string_val: "3"
        string_val: "3"
        string_val: "3"
        string_val: "3"
        string_val: "3"
        string_val: "3"
        string_val: "3"
        string_val: "3"
        string_val: "4"
        string_val: "4"
        string_val: "4"
        string_val: "4"
        string_val: "4"
        string_val: "4"
        string_val: "4"
        string_val: "4"
        string_val: "4"
        string_val: "4"
        string_val: "4"
        string_val: "4"
        string_val: "4"
        string_val: "4"
        string_val: "4"
        string_val: "4"
        string_val: "4"
        string_val: "4"
        string_val: "4"
        string_val: "4"
        string_val: "4"
        string_val: "4"
        string_val: "4"
        string_val: "4"
        string_val: "4"
        string_val: "4"
        string_val: "4"
        string_val: "5more"
        string_val: "5more"
        string_val: "5more"
        string_val: "5more"
        string_val: "5more"
        string_val: "5more"
        string_val: "5more"
        string_val: "5more"
        string_val: "5more"
        string_val: "5more"
        string_val: "5more"
        string_val: "5more"
        string_val: "5more"
        string_val: "5more"
        string_val: "5more"
        string_val: "5more"
        string_val: "5more"
        string_val: "5more"
        string_val: "5more"
        string_val: "5more"
        string_val: "5more"
        string_val: "5more"
        string_val: "5more"
        string_val: "5more"
        string_val: "5more"
        string_val: "5more"
        string_val: "5more"
        string_val: "2"
        string_val: "2"
        string_val: "2"
        string_val: "2"
        string_val: "2"
        string_val: "2"
        string_val: "2"
        string_val: "2"
        string_val: "2"
        string_val: "2"
        string_val: "2"
        string_val: "2"
        string_val: "2"
        string_val: "2"
        string_val: "2"
        string_val: "2"
        string_val: "2"
        string_val: "2"
        string_val: "2"
        string_val: "2"
        string_val: "2"
        string_val: "2"
        string_val: "2"
        string_val: "2"
        string_val: "2"
        string_val: "2"
        string_val: "2"
        string_val: "3"
        string_val: "3"
        string_val: "3"
        string_val: "3"
        string_val: "3"
        string_val: "3"
        string_val: "3"
        string_val: "3"
        string_val: "3"
        string_val: "3"
        string_val: "3"
        string_val: "3"
        string_val: "3"
        string_val: "3"
        string_val: "3"
        string_val: "3"
        string_val: "3"
        string_val: "3"
        string_val: "3"
        string_val: "3"
        string_val: "3"
        string_val: "3"
        string_val: "3"
        string_val: "3"
        string_val: "3"
        string_val: "3"
        string_val: "3"
        string_val: "4"
        string_val: "4"
        string_val: "4"
        string_val: "4"
        string_val: "4"
        string_val: "4"
        string_val: "4"
        string_val: "4"
        string_val: "4"
        string_val: "4"
        string_val: "4"
        string_val: "4"
        string_val: "4"
        string_val: "4"
        string_val: "4"
        string_val: "4"
        string_val: "4"
        string_val: "4"
        string_val: "4"
        string_val: "4"
        string_val: "4"
        string_val: "4"
        string_val: "4"
        string_val: "4"
        string_val: "4"
        string_val: "4"
        string_val: "4"
        string_val: "5more"
        string_val: "5more"
        string_val: "5more"
        string_val: "5more"
        string_val: "5more"
        string_val: "5more"
        string_val: "5more"
        string_val: "5more"
        string_val: "5more"
        string_val: "5more"
        string_val: "5more"
        string_val: "5more"
        string_val: "5more"
        string_val: "5more"
        string_val: "5more"
        string_val: "5more"
        string_val: "5more"
        string_val: "5more"
        string_val: "5more"
        string_val: "5more"
        string_val: "5more"
        string_val: "5more"
        string_val: "5more"
        string_val: "5more"
        string_val: "5more"
        string_val: "5more"
        string_val: "5more"
        string_val: "2"
        string_val: "2"
        string_val: "2"
        string_val: "2"
        string_val: "2"
        string_val: "2"
        string_val: "2"
        string_val: "2"
        string_val: "2"
        string_val: "2"
        string_val: "2"
        string_val: "2"
        string_val: "2"
        string_val: "2"
        string_val: "2"
        string_val: "2"
        string_val: "2"
        string_val: "2"
        string_val: "2"
        string_val: "2"
        string_val: "2"
        string_val: "2"
        string_val: "2"
        string_val: "2"
        string_val: "2"
        string_val: "2"
        string_val: "2"
        string_val: "3"
        string_val: "3"
        string_val: "3"
        string_val: "3"
        string_val: "3"
        string_val: "3"
        string_val: "3"
        string_val: "3"
        string_val: "3"
        string_val: "3"
        string_val: "3"
        string_val: "3"
        string_val: "3"
        string_val: "3"
        string_val: "3"
        string_val: "3"
        string_val: "3"
        string_val: "3"
        string_val: "3"
        string_val: "3"
        string_val: "3"
        string_val: "3"
        string_val: "3"
        string_val: "3"
        string_val: "3"
        string_val: "3"
        string_val: "3"
        string_val: "4"
        string_val: "4"
        string_val: "4"
        string_val: "4"
        string_val: "4"
        string_val: "4"
        string_val: "4"
        string_val: "4"
        string_val: "4"
        string_val: "4"
        string_val: "4"
        string_val: "4"
        string_val: "4"
        string_val: "4"
        string_val: "4"
        string_val: "4"
        string_val: "4"
        string_val: "4"
        string_val: "4"
        string_val: "4"
        string_val: "4"
        string_val: "4"
        string_val: "4"
        string_val: "4"
        string_val: "4"
        string_val: "4"
        string_val: "4"
        string_val: "5more"
        string_val: "5more"
        string_val: "5more"
        string_val: "5more"
        string_val: "5more"
        string_val: "5more"
        string_val: "5more"
        string_val: "5more"
        string_val: "5more"
        string_val: "5more"
        string_val: "5more"
        string_val: "5more"
        string_val: "5more"
        string_val: "5more"
        string_val: "5more"
        string_val: "5more"
        string_val: "5more"
        string_val: "5more"
        string_val: "5more"
        string_val: "5more"
        string_val: "5more"
        string_val: "5more"
        string_val: "5more"
        string_val: "5more"
        string_val: "5more"
        string_val: "5more"
        string_val: "5more"
        string_val: "2"
        string_val: "2"
        string_val: "2"
        string_val: "2"
        string_val: "2"
        string_val: "2"
        string_val: "2"
        string_val: "2"
        string_val: "2"
        string_val: "2"
        string_val: "2"
        string_val: "2"
        string_val: "2"
        string_val: "2"
        string_val: "2"
        string_val: "2"
        string_val: "2"
        string_val: "2"
        string_val: "2"
        string_val: "2"
        string_val: "2"
        string_val: "2"
        string_val: "2"
        string_val: "2"
        string_val: "2"
        string_val: "2"
        string_val: "2"
        string_val: "3"
        string_val: "3"
        string_val: "3"
        string_val: "3"
        string_val: "3"
        string_val: "3"
        string_val: "3"
        string_val: "3"
        string_val: "3"
        string_val: "3"
        string_val: "3"
        string_val: "3"
        string_val: "3"
        string_val: "3"
        string_val: "3"
        string_val: "3"
        string_val: "3"
        string_val: "3"
        string_val: "3"
        string_val: "3"
        string_val: "3"
        string_val: "3"
        string_val: "3"
        string_val: "3"
        string_val: "3"
        string_val: "3"
        string_val: "3"
        string_val: "4"
        string_val: "4"
        string_val: "4"
        string_val: "4"
        string_val: "4"
        string_val: "4"
        string_val: "4"
        string_val: "4"
        string_val: "4"
        string_val: "4"
        string_val: "4"
        string_val: "4"
        string_val: "4"
        string_val: "4"
        string_val: "4"
        string_val: "4"
        string_val: "4"
        string_val: "4"
        string_val: "4"
        string_val: "4"
        string_val: "4"
        string_val: "4"
        string_val: "4"
        string_val: "4"
        string_val: "4"
        string_val: "4"
        string_val: "4"
        string_val: "5more"
        string_val: "5more"
        string_val: "5more"
        string_val: "5more"
        string_val: "5more"
        string_val: "5more"
        string_val: "5more"
        string_val: "5more"
        string_val: "5more"
        string_val: "5more"
        string_val: "5more"
        string_val: "5more"
        string_val: "5more"
        string_val: "5more"
        string_val: "5more"
        string_val: "5more"
        string_val: "5more"
        string_val: "5more"
        string_val: "5more"
        string_val: "5more"
        string_val: "5more"
        string_val: "5more"
        string_val: "5more"
        string_val: "5more"
        string_val: "5more"
        string_val: "5more"
        string_val: "5more"
        string_val: "2"
        string_val: "2"
        string_val: "2"
        string_val: "2"
        string_val: "2"
        string_val: "2"
        string_val: "2"
        string_val: "2"
        string_val: "2"
        string_val: "2"
        string_val: "2"
        string_val: "2"
        string_val: "2"
        string_val: "2"
        string_val: "2"
        string_val: "2"
        string_val: "2"
        string_val: "2"
        string_val: "2"
        string_val: "2"
        string_val: "2"
        string_val: "2"
        string_val: "2"
        string_val: "2"
        string_val: "2"
        string_val: "2"
        string_val: "2"
        string_val: "3"
        string_val: "3"
        string_val: "3"
        string_val: "3"
        string_val: "3"
        string_val: "3"
        string_val: "3"
        string_val: "3"
        string_val: "3"
        string_val: "3"
        string_val: "3"
        string_val: "3"
        string_val: "3"
        string_val: "3"
        string_val: "3"
        string_val: "3"
        string_val: "3"
        string_val: "3"
        string_val: "3"
        string_val: "3"
        string_val: "3"
        string_val: "3"
        string_val: "3"
        string_val: "3"
        string_val: "3"
        string_val: "3"
        string_val: "4"
        string_val: "4"
        string_val: "4"
        string_val: "4"
        string_val: "4"
        string_val: "4"
        string_val: "4"
        string_val: "4"
        string_val: "4"
        string_val: "4"
        string_val: "4"
        string_val: "4"
        string_val: "4"
        string_val: "4"
        string_val: "4"
        string_val: "4"
        string_val: "4"
        string_val: "4"
        string_val: "4"
        string_val: "4"
        string_val: "4"
        string_val: "4"
        string_val: "4"
        string_val: "4"
        string_val: "4"
        string_val: "4"
        string_val: "4"
        string_val: "5more"
        string_val: "5more"
        string_val: "5more"
        string_val: "5more"
        string_val: "5more"
        string_val: "5more"
        string_val: "5more"
        string_val: "5more"
        string_val: "5more"
        string_val: "5more"
        string_val: "5more"
        string_val: "5more"
        string_val: "5more"
        string_val: "5more"
        string_val: "5more"
        string_val: "5more"
        string_val: "5more"
        string_val: "5more"
        string_val: "5more"
        string_val: "5more"
        string_val: "5more"
        string_val: "5more"
        string_val: "5more"
        string_val: "5more"
        string_val: "5more"
        string_val: "5more"
        string_val: "5more"
        string_val: "2"
        string_val: "2"
        string_val: "2"
        string_val: "2"
        string_val: "2"
        string_val: "2"
        string_val: "2"
        string_val: "2"
        string_val: "2"
        string_val: "2"
        string_val: "2"
        string_val: "2"
        string_val: "2"
        string_val: "2"
        string_val: "2"
        string_val: "2"
        string_val: "2"
        string_val: "2"
        string_val: "2"
        string_val: "2"
        string_val: "2"
        string_val: "2"
        string_val: "2"
        string_val: "2"
        string_val: "2"
        string_val: "2"
        string_val: "2"
        string_val: "3"
        string_val: "3"
        string_val: "3"
        string_val: "3"
        string_val: "3"
        string_val: "3"
        string_val: "3"
        string_val: "3"
        string_val: "3"
        string_val: "3"
        string_val: "3"
        string_val: "3"
        string_val: "3"
        string_val: "3"
        string_val: "3"
        string_val: "3"
        string_val: "3"
        string_val: "3"
        string_val: "3"
        string_val: "3"
        string_val: "3"
        string_val: "3"
        string_val: "3"
        string_val: "3"
        string_val: "3"
        string_val: "3"
        string_val: "3"
        string_val: "4"
        string_val: "4"
        string_val: "4"
        string_val: "4"
        string_val: "4"
        string_val: "4"
        string_val: "4"
        string_val: "4"
        string_val: "4"
        string_val: "4"
        string_val: "4"
        string_val: "4"
        string_val: "4"
        string_val: "4"
        string_val: "4"
        string_val: "4"
        string_val: "4"
        string_val: "4"
        string_val: "4"
        string_val: "4"
        string_val: "4"
        string_val: "4"
        string_val: "4"
        string_val: "4"
        string_val: "4"
        string_val: "4"
        string_val: "4"
        string_val: "5more"
        string_val: "5more"
        string_val: "5more"
        string_val: "5more"
        string_val: "5more"
        string_val: "5more"
        string_val: "5more"
        string_val: "5more"
        string_val: "5more"
        string_val: "5more"
        string_val: "5more"
        string_val: "5more"
        string_val: "5more"
        string_val: "5more"
        string_val: "5more"
        string_val: "5more"
        string_val: "5more"
        string_val: "5more"
        string_val: "5more"
        string_val: "5more"
        string_val: "5more"
        string_val: "5more"
        string_val: "5more"
        string_val: "5more"
        string_val: "5more"
        string_val: "5more"
        string_val: "5more"
        string_val: "2"
        string_val: "2"
        string_val: "2"
        string_val: "2"
        string_val: "2"
        string_val: "2"
        string_val: "2"
        string_val: "2"
        string_val: "2"
        string_val: "2"
        string_val: "2"
        string_val: "2"
        string_val: "2"
        string_val: "2"
        string_val: "2"
        string_val: "2"
        string_val: "2"
        string_val: "2"
        string_val: "2"
        string_val: "2"
        string_val: "2"
        string_val: "2"
        string_val: "2"
        string_val: "2"
        string_val: "2"
        string_val: "2"
        string_val: "2"
        string_val: "3"
        string_val: "3"
        string_val: "3"
        string_val: "3"
        string_val: "3"
        string_val: "3"
        string_val: "3"
        string_val: "3"
        string_val: "3"
        string_val: "3"
        string_val: "3"
        string_val: "3"
        string_val: "3"
        string_val: "3"
        string_val: "3"
        string_val: "3"
        string_val: "3"
        string_val: "3"
        string_val: "3"
        string_val: "3"
        string_val: "3"
        string_val: "3"
        string_val: "3"
        string_val: "3"
        string_val: "3"
        string_val: "3"
        string_val: "3"
        string_val: "4"
        string_val: "4"
        string_val: "4"
        string_val: "4"
        string_val: "4"
        string_val: "4"
        string_val: "4"
        string_val: "4"
        string_val: "4"
        string_val: "4"
        string_val: "4"
        string_val: "4"
        string_val: "4"
        string_val: "4"
        string_val: "4"
        string_val: "4"
        string_val: "4"
        string_val: "4"
        string_val: "4"
        string_val: "4"
        string_val: "4"
        string_val: "4"
        string_val: "4"
        string_val: "4"
        string_val: "4"
        string_val: "4"
        string_val: "4"
        string_val: "5more"
        string_val: "5more"
        string_val: "5more"
        string_val: "5more"
        string_val: "5more"
        string_val: "5more"
        string_val: "5more"
        string_val: "5more"
        string_val: "5more"
        string_val: "5more"
        string_val: "5more"
        string_val: "5more"
        string_val: "5more"
        string_val: "5more"
        string_val: "5more"
        string_val: "5more"
        string_val: "5more"
        string_val: "5more"
        string_val: "5more"
        string_val: "5more"
        string_val: "5more"
        string_val: "5more"
        string_val: "5more"
        string_val: "5more"
        string_val: "5more"
        string_val: "5more"
        string_val: "5more"
        string_val: "2"
        string_val: "2"
        string_val: "2"
        string_val: "2"
        string_val: "2"
        string_val: "2"
        string_val: "2"
        string_val: "2"
        string_val: "2"
        string_val: "2"
        string_val: "2"
        string_val: "2"
        string_val: "2"
        string_val: "2"
        string_val: "2"
        string_val: "2"
        string_val: "2"
        string_val: "2"
        string_val: "2"
        string_val: "2"
        string_val: "2"
        string_val: "2"
        string_val: "2"
        string_val: "2"
        string_val: "2"
        string_val: "2"
        string_val: "2"
        string_val: "3"
        string_val: "3"
        string_val: "3"
        string_val: "3"
        string_val: "3"
        string_val: "3"
        string_val: "3"
        string_val: "3"
        string_val: "3"
        string_val: "3"
        string_val: "3"
        string_val: "3"
        string_val: "3"
        string_val: "3"
        string_val: "3"
        string_val: "3"
        string_val: "3"
        string_val: "3"
        string_val: "3"
        string_val: "3"
        string_val: "3"
        string_val: "3"
        string_val: "3"
        string_val: "3"
        string_val: "3"
        string_val: "3"
        string_val: "3"
        string_val: "4"
        string_val: "4"
        string_val: "4"
        string_val: "4"
        string_val: "4"
        string_val: "4"
        string_val: "4"
        string_val: "4"
        string_val: "4"
        string_val: "4"
        string_val: "4"
        string_val: "4"
        string_val: "4"
        string_val: "4"
        string_val: "4"
        string_val: "4"
        string_val: "4"
        string_val: "4"
        string_val: "4"
        string_val: "4"
        string_val: "4"
        string_val: "4"
        string_val: "4"
        string_val: "4"
        string_val: "4"
        string_val: "4"
        string_val: "4"
        string_val: "5more"
        string_val: "5more"
        string_val: "5more"
        string_val: "5more"
        string_val: "5more"
        string_val: "5more"
        string_val: "5more"
        string_val: "5more"
        string_val: "5more"
        string_val: "5more"
        string_val: "5more"
        string_val: "5more"
        string_val: "5more"
        string_val: "5more"
        string_val: "5more"
        string_val: "5more"
        string_val: "5more"
        string_val: "5more"
        string_val: "5more"
        string_val: "5more"
        string_val: "5more"
        string_val: "5more"
        string_val: "5more"
        string_val: "5more"
        string_val: "5more"
        string_val: "5more"
        string_val: "5more"
        string_val: "2"
        string_val: "2"
        string_val: "2"
        string_val: "2"
        string_val: "2"
        string_val: "2"
        string_val: "2"
        string_val: "2"
        string_val: "2"
        string_val: "2"
        string_val: "2"
        string_val: "2"
        string_val: "2"
        string_val: "2"
        string_val: "2"
        string_val: "2"
        string_val: "2"
        string_val: "2"
        string_val: "2"
        string_val: "2"
        string_val: "2"
        string_val: "2"
        string_val: "2"
        string_val: "2"
        string_val: "2"
        string_val: "2"
        string_val: "2"
        string_val: "3"
        string_val: "3"
        string_val: "3"
        string_val: "3"
        string_val: "3"
        string_val: "3"
        string_val: "3"
        string_val: "3"
        string_val: "3"
        string_val: "3"
        string_val: "3"
        string_val: "3"
        string_val: "3"
        string_val: "3"
        string_val: "3"
        string_val: "3"
        string_val: "3"
        string_val: "3"
        string_val: "3"
        string_val: "3"
        string_val: "3"
        string_val: "3"
        string_val: "3"
        string_val: "3"
        string_val: "3"
        string_val: "3"
        string_val: "3"
        string_val: "4"
        string_val: "4"
        string_val: "4"
        string_val: "4"
        string_val: "4"
        string_val: "4"
        string_val: "4"
        string_val: "4"
        string_val: "4"
        string_val: "4"
        string_val: "4"
        string_val: "4"
        string_val: "4"
        string_val: "4"
        string_val: "4"
        string_val: "4"
        string_val: "4"
        string_val: "4"
        string_val: "4"
        string_val: "4"
        string_val: "4"
        string_val: "4"
        string_val: "4"
        string_val: "4"
        string_val: "4"
        string_val: "4"
        string_val: "4"
        string_val: "5more"
        string_val: "5more"
        string_val: "5more"
        string_val: "5more"
        string_val: "5more"
        string_val: "5more"
        string_val: "5more"
        string_val: "5more"
        string_val: "5more"
        string_val: "5more"
        string_val: "5more"
        string_val: "5more"
        string_val: "5more"
        string_val: "5more"
        string_val: "5more"
        string_val: "5more"
        string_val: "5more"
        string_val: "5more"
        string_val: "5more"
        string_val: "5more"
        string_val: "5more"
        string_val: "5more"
        string_val: "5more"
        string_val: "5more"
        string_val: "5more"
        string_val: "5more"
        string_val: "5more"
        string_val: "2"
        string_val: "2"
        string_val: "2"
        string_val: "2"
        string_val: "2"
        string_val: "2"
        string_val: "2"
        string_val: "2"
        string_val: "2"
        string_val: "2"
        string_val: "2"
        string_val: "2"
        string_val: "2"
        string_val: "2"
        string_val: "2"
        string_val: "2"
        string_val: "2"
        string_val: "2"
        string_val: "2"
        string_val: "2"
        string_val: "2"
        string_val: "2"
        string_val: "2"
        string_val: "2"
        string_val: "2"
        string_val: "2"
        string_val: "2"
        string_val: "3"
        string_val: "3"
        string_val: "3"
        string_val: "3"
        string_val: "3"
        string_val: "3"
        string_val: "3"
        string_val: "3"
        string_val: "3"
        string_val: "3"
        string_val: "3"
        string_val: "3"
        string_val: "3"
        string_val: "3"
        string_val: "3"
        string_val: "3"
        string_val: "3"
        string_val: "3"
        string_val: "3"
        string_val: "3"
        string_val: "3"
        string_val: "3"
        string_val: "3"
        string_val: "3"
        string_val: "3"
        string_val: "3"
        string_val: "3"
        string_val: "4"
        string_val: "4"
        string_val: "4"
        string_val: "4"
        string_val: "4"
        string_val: "4"
        string_val: "4"
        string_val: "4"
        string_val: "4"
        string_val: "4"
        string_val: "4"
        string_val: "4"
        string_val: "4"
        string_val: "4"
        string_val: "4"
        string_val: "4"
        string_val: "4"
        string_val: "4"
        string_val: "4"
        string_val: "4"
        string_val: "4"
        string_val: "4"
        string_val: "4"
        string_val: "4"
        string_val: "4"
        string_val: "4"
        string_val: "4"
        string_val: "5more"
        string_val: "5more"
        string_val: "5more"
        string_val: "5more"
        string_val: "5more"
        string_val: "5more"
        string_val: "5more"
        string_val: "5more"
        string_val: "5more"
        string_val: "5more"
        string_val: "5more"
        string_val: "5more"
        string_val: "5more"
        string_val: "5more"
        string_val: "5more"
        string_val: "5more"
        string_val: "5more"
        string_val: "5more"
        string_val: "5more"
        string_val: "5more"
        string_val: "5more"
        string_val: "5more"
        string_val: "5more"
        string_val: "5more"
        string_val: "5more"
        string_val: "5more"
        string_val: "5more"
        string_val: "2"
        string_val: "2"
        string_val: "2"
        string_val: "2"
        string_val: "2"
        string_val: "2"
        string_val: "2"
        string_val: "2"
        string_val: "2"
        string_val: "2"
        string_val: "2"
        string_val: "2"
        string_val: "2"
        string_val: "2"
        string_val: "2"
        string_val: "2"
        string_val: "2"
        string_val: "2"
        string_val: "2"
        string_val: "2"
        string_val: "2"
        string_val: "2"
        string_val: "2"
        string_val: "2"
        string_val: "2"
        string_val: "2"
        string_val: "2"
        string_val: "3"
        string_val: "3"
        string_val: "3"
        string_val: "3"
        string_val: "3"
        string_val: "3"
        string_val: "3"
        string_val: "3"
        string_val: "3"
        string_val: "3"
        string_val: "3"
        string_val: "3"
        string_val: "3"
        string_val: "3"
        string_val: "3"
        string_val: "3"
        string_val: "3"
        string_val: "3"
        string_val: "3"
        string_val: "3"
        string_val: "3"
        string_val: "3"
        string_val: "3"
        string_val: "3"
        string_val: "3"
        string_val: "3"
        string_val: "3"
        string_val: "4"
        string_val: "4"
        string_val: "4"
        string_val: "4"
        string_val: "4"
        string_val: "4"
        string_val: "4"
        string_val: "4"
        string_val: "4"
        string_val: "4"
        string_val: "4"
        string_val: "4"
        string_val: "4"
        string_val: "4"
        string_val: "4"
        string_val: "4"
        string_val: "4"
        string_val: "4"
        string_val: "4"
        string_val: "4"
        string_val: "4"
        string_val: "4"
        string_val: "4"
        string_val: "4"
        string_val: "4"
        string_val: "4"
        string_val: "4"
        string_val: "5more"
        string_val: "5more"
        string_val: "5more"
        string_val: "5more"
        string_val: "5more"
        string_val: "5more"
        string_val: "5more"
        string_val: "5more"
        string_val: "5more"
        string_val: "5more"
        string_val: "5more"
        string_val: "5more"
        string_val: "5more"
        string_val: "5more"
        string_val: "5more"
        string_val: "5more"
        string_val: "5more"
        string_val: "5more"
        string_val: "5more"
        string_val: "5more"
        string_val: "5more"
        string_val: "5more"
        string_val: "5more"
        string_val: "5more"
        string_val: "5more"
        string_val: "5more"
        string_val: "5more"
        string_val: "2"
        string_val: "2"
        string_val: "2"
        string_val: "2"
        string_val: "2"
        string_val: "2"
        string_val: "2"
        string_val: "2"
        string_val: "2"
        string_val: "2"
        string_val: "2"
        string_val: "2"
        string_val: "2"
        string_val: "2"
        string_val: "2"
        string_val: "2"
        string_val: "2"
        string_val: "2"
        string_val: "2"
        string_val: "2"
        string_val: "2"
        string_val: "2"
        string_val: "2"
        string_val: "2"
        string_val: "2"
        string_val: "2"
        string_val: "2"
        string_val: "3"
        string_val: "3"
        string_val: "3"
        string_val: "3"
        string_val: "3"
        string_val: "3"
        string_val: "3"
        string_val: "3"
        string_val: "3"
        string_val: "3"
        string_val: "3"
        string_val: "3"
        string_val: "3"
        string_val: "3"
        string_val: "3"
        string_val: "3"
        string_val: "3"
        string_val: "3"
        string_val: "3"
        string_val: "3"
        string_val: "3"
        string_val: "3"
        string_val: "3"
        string_val: "3"
        string_val: "3"
        string_val: "3"
        string_val: "3"
        string_val: "4"
        string_val: "4"
        string_val: "4"
        string_val: "4"
        string_val: "4"
        string_val: "4"
        string_val: "4"
        string_val: "4"
        string_val: "4"
        string_val: "4"
        string_val: "4"
        string_val: "4"
        string_val: "4"
        string_val: "4"
        string_val: "4"
        string_val: "4"
        string_val: "4"
        string_val: "4"
        string_val: "4"
        string_val: "4"
        string_val: "4"
        string_val: "4"
        string_val: "4"
        string_val: "4"
        string_val: "4"
        string_val: "4"
        string_val: "4"
        string_val: "5more"
        string_val: "5more"
        string_val: "5more"
        string_val: "5more"
        string_val: "5more"
        string_val: "5more"
        string_val: "5more"
        string_val: "5more"
        string_val: "5more"
        string_val: "5more"
        string_val: "5more"
        string_val: "5more"
        string_val: "5more"
        string_val: "5more"
        string_val: "5more"
        string_val: "5more"
        string_val: "5more"
        string_val: "5more"
        string_val: "5more"
        string_val: "5more"
        string_val: "5more"
        string_val: "5more"
        string_val: "5more"
        string_val: "5more"
        string_val: "5more"
        string_val: "5more"
        string_val: "5more"
        string_val: "2"
        string_val: "2"
        string_val: "2"
        string_val: "2"
        string_val: "2"
        string_val: "2"
        string_val: "2"
        string_val: "2"
        string_val: "2"
        string_val: "2"
        string_val: "2"
        string_val: "2"
        string_val: "2"
        string_val: "2"
        string_val: "2"
        string_val: "2"
        string_val: "2"
        string_val: "2"
        string_val: "2"
        string_val: "2"
        string_val: "2"
        string_val: "2"
        string_val: "2"
        string_val: "2"
        string_val: "2"
        string_val: "2"
        string_val: "2"
        string_val: "3"
        string_val: "3"
        string_val: "3"
        string_val: "3"
        string_val: "3"
        string_val: "3"
        string_val: "3"
        string_val: "3"
        string_val: "3"
        string_val: "3"
        string_val: "3"
        string_val: "3"
        string_val: "3"
        string_val: "3"
        string_val: "3"
        string_val: "3"
        string_val: "3"
        string_val: "3"
        string_val: "3"
        string_val: "3"
        string_val: "3"
        string_val: "3"
        string_val: "3"
        string_val: "3"
        string_val: "3"
        string_val: "3"
        string_val: "3"
        string_val: "4"
        string_val: "4"
        string_val: "4"
        string_val: "4"
        string_val: "4"
        string_val: "4"
        string_val: "4"
        string_val: "4"
        string_val: "4"
        string_val: "4"
        string_val: "4"
        string_val: "4"
        string_val: "4"
        string_val: "4"
        string_val: "4"
        string_val: "4"
        string_val: "4"
        string_val: "4"
        string_val: "4"
        string_val: "4"
        string_val: "4"
        string_val: "4"
        string_val: "4"
        string_val: "4"
        string_val: "4"
        string_val: "4"
        string_val: "4"
        string_val: "5more"
        string_val: "5more"
        string_val: "5more"
        string_val: "5more"
        string_val: "5more"
        string_val: "5more"
        string_val: "5more"
        string_val: "5more"
        string_val: "5more"
        string_val: "5more"
        string_val: "5more"
        string_val: "5more"
        string_val: "5more"
        string_val: "5more"
        string_val: "5more"
        string_val: "5more"
        string_val: "5more"
        string_val: "5more"
        string_val: "5more"
        string_val: "5more"
        string_val: "5more"
        string_val: "5more"
        string_val: "5more"
        string_val: "5more"
        string_val: "5more"
        string_val: "5more"
        string_val: "5more"
        string_val: "2"
        string_val: "2"
        string_val: "2"
        string_val: "2"
        string_val: "2"
        string_val: "2"
        string_val: "2"
        string_val: "2"
        string_val: "2"
        string_val: "2"
        string_val: "2"
        string_val: "2"
        string_val: "2"
        string_val: "2"
        string_val: "2"
        string_val: "2"
        string_val: "2"
        string_val: "2"
        string_val: "2"
        string_val: "2"
        string_val: "2"
        string_val: "2"
        string_val: "2"
        string_val: "2"
        string_val: "2"
        string_val: "2"
        string_val: "2"
        string_val: "3"
        string_val: "3"
        string_val: "3"
        string_val: "3"
        string_val: "3"
        string_val: "3"
        string_val: "3"
        string_val: "3"
        string_val: "3"
        string_val: "3"
        string_val: "3"
        string_val: "3"
        string_val: "3"
        string_val: "3"
        string_val: "3"
        string_val: "3"
        string_val: "3"
        string_val: "3"
        string_val: "3"
        string_val: "3"
        string_val: "3"
        string_val: "3"
        string_val: "3"
        string_val: "3"
        string_val: "3"
        string_val: "3"
        string_val: "3"
        string_val: "4"
        string_val: "4"
        string_val: "4"
        string_val: "4"
        string_val: "4"
        string_val: "4"
        string_val: "4"
        string_val: "4"
        string_val: "4"
        string_val: "4"
        string_val: "4"
        string_val: "4"
        string_val: "4"
        string_val: "4"
        string_val: "4"
        string_val: "4"
        string_val: "4"
        string_val: "4"
        string_val: "4"
        string_val: "4"
        string_val: "4"
        string_val: "4"
        string_val: "4"
        string_val: "4"
        string_val: "4"
        string_val: "4"
        string_val: "4"
        string_val: "5more"
        string_val: "5more"
        string_val: "5more"
        string_val: "5more"
        string_val: "5more"
        string_val: "5more"
        string_val: "5more"
        string_val: "5more"
        string_val: "5more"
        string_val: "5more"
        string_val: "5more"
        string_val: "5more"
        string_val: "5more"
        string_val: "5more"
        string_val: "5more"
        string_val: "5more"
        string_val: "5more"
        string_val: "5more"
        string_val: "5more"
        string_val: "5more"
        string_val: "5more"
        string_val: "5more"
        string_val: "5more"
        string_val: "5more"
        string_val: "5more"
        string_val: "5more"
        string_val: "5more"
        string_val: "2"
        string_val: "2"
        string_val: "2"
        string_val: "2"
        string_val: "2"
        string_val: "2"
        string_val: "2"
        string_val: "2"
        string_val: "2"
        string_val: "2"
        string_val: "2"
        string_val: "2"
        string_val: "2"
        string_val: "2"
        string_val: "2"
        string_val: "2"
        string_val: "2"
        string_val: "2"
        string_val: "2"
        string_val: "2"
        string_val: "2"
        string_val: "2"
        string_val: "2"
        string_val: "2"
        string_val: "2"
        string_val: "2"
        string_val: "2"
        string_val: "3"
        string_val: "3"
        string_val: "3"
        string_val: "3"
        string_val: "3"
        string_val: "3"
        string_val: "3"
        string_val: "3"
        string_val: "3"
        string_val: "3"
        string_val: "3"
        string_val: "3"
        string_val: "3"
        string_val: "3"
        string_val: "3"
        string_val: "3"
        string_val: "3"
        string_val: "3"
        string_val: "3"
        string_val: "3"
        string_val: "3"
        string_val: "3"
        string_val: "3"
        string_val: "3"
        string_val: "3"
        string_val: "3"
        string_val: "3"
        string_val: "4"
        string_val: "4"
        string_val: "4"
        string_val: "4"
        string_val: "4"
        string_val: "4"
        string_val: "4"
        string_val: "4"
        string_val: "4"
        string_val: "4"
        string_val: "4"
        string_val: "4"
        string_val: "4"
        string_val: "4"
        string_val: "4"
        string_val: "4"
        string_val: "4"
        string_val: "4"
        string_val: "4"
        string_val: "4"
        string_val: "4"
        string_val: "4"
        string_val: "4"
        string_val: "4"
        string_val: "4"
        string_val: "4"
        string_val: "4"
        string_val: "5more"
        string_val: "5more"
        string_val: "5more"
        string_val: "5more"
        string_val: "5more"
        string_val: "5more"
        string_val: "5more"
        string_val: "5more"
        string_val: "5more"
        string_val: "5more"
        string_val: "5more"
        string_val: "5more"
        string_val: "5more"
        string_val: "5more"
        string_val: "5more"
        string_val: "5more"
        string_val: "5more"
        string_val: "5more"
        string_val: "5more"
        string_val: "5more"
        string_val: "5more"
        string_val: "5more"
        string_val: "5more"
        string_val: "5more"
        string_val: "5more"
        string_val: "5more"
        string_val: "5more"
        string_val: "2"
        string_val: "2"
        string_val: "2"
        string_val: "2"
        string_val: "2"
        string_val: "2"
        string_val: "2"
        string_val: "2"
        string_val: "2"
        string_val: "2"
        string_val: "2"
        string_val: "2"
        string_val: "2"
        string_val: "2"
        string_val: "2"
        string_val: "2"
        string_val: "2"
        string_val: "2"
        string_val: "2"
        string_val: "2"
        string_val: "2"
        string_val: "2"
        string_val: "2"
        string_val: "2"
        string_val: "2"
        string_val: "2"
        string_val: "2"
        string_val: "3"
        string_val: "3"
        string_val: "3"
        string_val: "3"
        string_val: "3"
        string_val: "3"
        string_val: "3"
        string_val: "3"
        string_val: "3"
        string_val: "3"
        string_val: "3"
        string_val: "3"
        string_val: "3"
        string_val: "3"
        string_val: "3"
        string_val: "3"
        string_val: "3"
        string_val: "3"
        string_val: "3"
        string_val: "3"
        string_val: "3"
        string_val: "3"
        string_val: "3"
        string_val: "3"
        string_val: "3"
        string_val: "3"
        string_val: "3"
        string_val: "4"
        string_val: "4"
        string_val: "4"
        string_val: "4"
        string_val: "4"
        string_val: "4"
        string_val: "4"
        string_val: "4"
        string_val: "4"
        string_val: "4"
        string_val: "4"
        string_val: "4"
        string_val: "4"
        string_val: "4"
        string_val: "4"
        string_val: "4"
        string_val: "4"
        string_val: "4"
        string_val: "4"
        string_val: "4"
        string_val: "4"
        string_val: "4"
        string_val: "4"
        string_val: "4"
        string_val: "4"
        string_val: "4"
        string_val: "5more"
        string_val: "5more"
        string_val: "5more"
        string_val: "5more"
        string_val: "5more"
        string_val: "5more"
        string_val: "5more"
        string_val: "5more"
        string_val: "5more"
        string_val: "5more"
        string_val: "5more"
        string_val: "5more"
        string_val: "5more"
        string_val: "5more"
        string_val: "5more"
        string_val: "5more"
        string_val: "5more"
        string_val: "5more"
        string_val: "5more"
        string_val: "5more"
        string_val: "5more"
        string_val: "5more"
        string_val: "5more"
        string_val: "5more"
        string_val: "5more"
      }
    }
  }
}
node {
  name: "SparseTensor_2/shape"
  op: "Const"
  attr {
    key: "_output_shapes"
    value {
      list {
        shape {
          dim {
            size: 2
          }
        }
      }
    }
  }
  attr {
    key: "dtype"
    value {
      type: DT_INT64
    }
  }
  attr {
    key: "value"
    value {
      tensor {
        dtype: DT_INT64
        tensor_shape {
          dim {
            size: 2
          }
        }
        tensor_content: "\274\006\000\000\000\000\000\000\001\000\000\000\000\000\000\000"
      }
    }
  }
}
node {
  name: "SparseTensor_3/indices"
  op: "Const"
  attr {
    key: "_output_shapes"
    value {
      list {
        shape {
          dim {
            size: 1724
          }
          dim {
            size: 2
          }
        }
      }
    }
  }
  attr {
    key: "dtype"
    value {
      type: DT_INT64
    }
  }
  attr {
    key: "value"
    value {
      tensor {
        dtype: DT_INT64
        tensor_shape {
          dim {
            size: 1724
          }
          dim {
            size: 2
          }
        }
        tensor_content: "…"
      }
    }
  }
}
node {
  name: "SparseTensor_3/values"
  op: "Const"
  attr {
    key: "_output_shapes"
    value {
      list {
        shape {
          dim {
            size: 1724
          }
        }
      }
    }
  }
  attr {
    key: "dtype"
    value {
      type: DT_STRING
    }
  }
  attr {
    key: "value"
    value {
      tensor {
        dtype: DT_STRING
        tensor_shape {
          dim {
            size: 1724
          }
        }
        string_val: "2"
        string_val: "2"
        string_val: "2"
        string_val: "2"
        string_val: "2"
        string_val: "2"
        string_val: "2"
        string_val: "2"
        string_val: "2"
        string_val: "4"
        string_val: "4"
        string_val: "4"
        string_val: "4"
        string_val: "4"
        string_val: "4"
        string_val: "4"
        string_val: "4"
        string_val: "4"
        string_val: "more"
        string_val: "more"
        string_val: "more"
        string_val: "more"
        string_val: "more"
        string_val: "more"
        string_val: "more"
        string_val: "more"
        string_val: "more"
        string_val: "2"
        string_val: "2"
        string_val: "2"
        string_val: "2"
        string_val: "2"
        string_val: "2"
        string_val: "2"
        string_val: "2"
        string_val: "2"
        string_val: "4"
        string_val: "4"
        string_val: "4"
        string_val: "4"
        string_val: "4"
        string_val: "4"
        string_val: "4"
        string_val: "4"
        string_val: "4"
        string_val: "more"
        string_val: "more"
        string_val: "more"
        string_val: "more"
        string_val: "more"
        string_val: "more"
        string_val: "more"
        string_val: "more"
        string_val: "more"
        string_val: "2"
        string_val: "2"
        string_val: "2"
        string_val: "2"
        string_val: "2"
        string_val: "2"
        string_val: "2"
        string_val: "2"
        string_val: "2"
        string_val: "4"
        string_val: "4"
        string_val: "4"
        string_val: "4"
        string_val: "4"
        string_val: "4"
        string_val: "4"
        string_val: "4"
        string_val: "4"
        string_val: "more"
        string_val: "more"
        string_val: "more"
        string_val: "more"
        string_val: "more"
        string_val: "more"
        string_val: "more"
        string_val: "more"
        string_val: "more"
        string_val: "2"
        string_val: "2"
        string_val: "2"
        string_val: "2"
        string_val: "2"
        string_val: "2"
        string_val: "2"
        string_val: "2"
        string_val: "2"
        string_val: "4"
        string_val: "4"
        string_val: "4"
        string_val: "4"
        string_val: "4"
        string_val: "4"
        string_val: "4"
        string_val: "4"
        string_val: "4"
        string_val: "more"
        string_val: "more"
        string_val: "more"
        string_val: "more"
        string_val: "more"
        string_val: "more"
        string_val: "more"
        string_val: "more"
        string_val: "more"
        string_val: "2"
        string_val: "2"
        string_val: "2"
        string_val: "2"
        string_val: "2"
        string_val: "2"
        string_val: "2"
        string_val: "2"
        string_val: "2"
        string_val: "4"
        string_val: "4"
        string_val: "4"
        string_val: "4"
        string_val: "4"
        string_val: "4"
        string_val: "4"
        string_val: "4"
        string_val: "4"
        string_val: "more"
        string_val: "more"
        string_val: "more"
        string_val: "more"
        string_val: "more"
        string_val: "more"
        string_val: "more"
        string_val: "more"
        string_val: "more"
        string_val: "2"
        string_val: "2"
        string_val: "2"
        string_val: "2"
        string_val: "2"
        string_val: "2"
        string_val: "2"
        string_val: "2"
        string_val: "2"
        string_val: "4"
        string_val: "4"
        string_val: "4"
        string_val: "4"
        string_val: "4"
        string_val: "4"
        string_val: "4"
        string_val: "4"
        string_val: "4"
        string_val: "more"
        string_val: "more"
        string_val: "more"
        string_val: "more"
        string_val: "more"
        string_val: "more"
        string_val: "more"
        string_val: "more"
        string_val: "more"
        string_val: "2"
        string_val: "2"
        string_val: "2"
        string_val: "2"
        string_val: "2"
        string_val: "2"
        string_val: "2"
        string_val: "2"
        string_val: "2"
        string_val: "4"
        string_val: "4"
        string_val: "4"
        string_val: "4"
        string_val: "4"
        string_val: "4"
        string_val: "4"
        string_val: "4"
        string_val: "4"
        string_val: "more"
        string_val: "more"
        string_val: "more"
        string_val: "more"
        string_val: "more"
        string_val: "more"
        string_val: "more"
        string_val: "more"
        string_val: "more"
        string_val: "2"
        string_val: "2"
        string_val: "2"
        string_val: "2"
        string_val: "2"
        string_val: "2"
        string_val: "2"
        string_val: "2"
        string_val: "2"
        string_val: "4"
        string_val: "4"
        string_val: "4"
        string_val: "4"
        string_val: "4"
        string_val: "4"
        string_val: "4"
        string_val: "4"
        string_val: "4"
        string_val: "more"
        string_val: "more"
        string_val: "more"
        string_val: "more"
        string_val: "more"
        string_val: "more"
        string_val: "more"
        string_val: "more"
        string_val: "more"
        string_val: "2"
        string_val: "2"
        string_val: "2"
        string_val: "2"
        string_val: "2"
        string_val: "2"
        string_val: "2"
        string_val: "2"
        string_val: "2"
        string_val: "4"
        string_val: "4"
        string_val: "4"
        string_val: "4"
        string_val: "4"
        string_val: "4"
        string_val: "4"
        string_val: "4"
        string_val: "4"
        string_val: "more"
        string_val: "more"
        string_val: "more"
        string_val: "more"
        string_val: "more"
        string_val: "more"
        string_val: "more"
        string_val: "more"
        string_val: "more"
        string_val: "2"
        string_val: "2"
        string_val: "2"
        string_val: "2"
        string_val: "2"
        string_val: "2"
        string_val: "2"
        string_val: "2"
        string_val: "2"
        string_val: "4"
        string_val: "4"
        string_val: "4"
        string_val: "4"
        string_val: "4"
        string_val: "4"
        string_val: "4"
        string_val: "4"
        string_val: "4"
        string_val: "more"
        string_val: "more"
        string_val: "more"
        string_val: "more"
        string_val: "more"
        string_val: "more"
        string_val: "more"
        string_val: "more"
        string_val: "more"
        string_val: "2"
        string_val: "2"
        string_val: "2"
        string_val: "2"
        string_val: "2"
        string_val: "2"
        string_val: "2"
        string_val: "2"
        string_val: "2"
        string_val: "4"
        string_val: "4"
        string_val: "4"
        string_val: "4"
        string_val: "4"
        string_val: "4"
…
    key: "_output_shapes"
    value {
      list {
        shape {
        }
      }
    }
  }
  attr {
    key: "dtype"
    value {
      type: DT_FLOAT
    }
  }
}
node {
  name: "report_uninitialized_variables/IsVariableInitialized_14"
  op: "IsVariableInitialized"
  input: "accuracy/total"
  attr {
    key: "_class"
    value {
      list {
        s: "loc:@accuracy/total"
      }
    }
  }
  attr {
    key: "_output_shapes"
    value {
      list {
        shape {
        }
      }
    }
  }
  attr {
    key: "dtype"
    value {
      type: DT_FLOAT
    }
  }
}
node {
  name: "report_uninitialized_variables/IsVariableInitialized_15"
  op: "IsVariableInitialized"
  input: "accuracy/count"
  attr {
    key: "_class"
    value {
      list {
        s: "loc:@accuracy/count"
      }
    }
  }
  attr {
    key: "_output_shapes"
    value {
      list {
        shape {
        }
      }
    }
  }
  attr {
    key: "dtype"
    value {
      type: DT_FLOAT
    }
  }
}
node {
  name: "report_uninitialized_variables/IsVariableInitialized_16"
  op: "IsVariableInitialized"
  input: "mean/total"
  attr {
    key: "_class"
    value {
      list {
        s: "loc:@mean/total"
      }
    }
  }
  attr {
    key: "_output_shapes"
    value {
      list {
        shape {
        }
      }
    }
  }
  attr {
    key: "dtype"
    value {
      type: DT_FLOAT
    }
  }
}
node {
  name: "report_uninitialized_variables/IsVariableInitialized_17"
  op: "IsVariableInitialized"
  input: "mean/count"
  attr {
    key: "_class"
    value {
      list {
        s: "loc:@mean/count"
      }
    }
  }
  attr {
    key: "_output_shapes"
    value {
      list {
        shape {
        }
      }
    }
  }
  attr {
    key: "dtype"
    value {
      type: DT_FLOAT
    }
  }
}
node {
  name: "report_uninitialized_variables/pack"
  op: "Pack"
  input: "report_uninitialized_variables/IsVariableInitialized"
  input: "report_uninitialized_variables/IsVariableInitialized_1"
  input: "report_uninitialized_variables/IsVariableInitialized_2"
  input: "report_uninitialized_variables/IsVariableInitialized_3"
  input: "report_uninitialized_variables/IsVariableInitialized_4"
  input: "report_uninitialized_variables/IsVariableInitialized_5"
  input: "report_uninitialized_variables/IsVariableInitialized_6"
  input: "report_uninitialized_variables/IsVariableInitialized_7"
  input: "report_uninitialized_variables/IsVariableInitialized_8"
  input: "report_uninitialized_variables/IsVariableInitialized_9"
  input: "report_uninitialized_variables/IsVariableInitialized_10"
  input: "report_uninitialized_variables/IsVariableInitialized_11"
  input: "report_uninitialized_variables/IsVariableInitialized_12"
  input: "report_uninitialized_variables/IsVariableInitialized_13"
  input: "report_uninitialized_variables/IsVariableInitialized_14"
  input: "report_uninitialized_variables/IsVariableInitialized_15"
  input: "report_uninitialized_variables/IsVariableInitialized_16"
  input: "report_uninitialized_variables/IsVariableInitialized_17"
  attr {
    key: "N"
    value {
      i: 18
    }
  }
  attr {
    key: "T"
    value {
      type: DT_BOOL
    }
  }
  attr {
    key: "_output_shapes"
    value {
      list {
        shape {
          dim {
            size: 18
          }
        }
      }
    }
  }
  attr {
    key: "axis"
    value {
      i: 0
    }
  }
}
node {
  name: "report_uninitialized_variables/LogicalNot"
  op: "LogicalNot"
  input: "report_uninitialized_variables/pack"
  attr {
    key: "_output_shapes"
    value {
      list {
        shape {
          dim {
            size: 18
          }
        }
      }
    }
  }
}
node {
  name: "report_uninitialized_variables/Const"
  op: "Const"
  attr {
    key: "_output_shapes"
    value {
      list {
        shape {
          dim {
            size: 18
          }
        }
      }
    }
  }
  attr {
    key: "dtype"
    value {
      type: DT_STRING
    }
  }
  attr {
    key: "value"
    value {
      tensor {
        dtype: DT_STRING
        tensor_shape {
          dim {
            size: 18
          }
        }
        string_val: "global_step"
        string_val: "dnn/input_from_feature_columns/buying_embedding/weights/part_0"
        string_val: "dnn/input_from_feature_columns/doors_embedding/weights/part_0"
        string_val: "dnn/input_from_feature_columns/lug_boot_embedding/weights/part_0"
        string_val: "dnn/input_from_feature_columns/maint_embedding/weights/part_0"
        string_val: "dnn/input_from_feature_columns/persons_embedding/weights/part_0"
        string_val: "dnn/input_from_feature_columns/safety_embedding/weights/part_0"
        string_val: "dnn/hiddenlayer_0/weights/part_0"
        string_val: "dnn/hiddenlayer_0/biases/part_0"
        string_val: "dnn/hiddenlayer_1/weights/part_0"
        string_val: "dnn/hiddenlayer_1/biases/part_0"
        string_val: "dnn/logits/weights/part_0"
        string_val: "dnn/logits/biases/part_0"
        string_val: "dnn/learning_rate"
        string_val: "accuracy/total"
        string_val: "accuracy/count"
        string_val: "mean/total"
        string_val: "mean/count"
      }
    }
  }
}
node {
  name: "report_uninitialized_variables/boolean_mask/Shape"
  op: "Const"
  attr {
    key: "_output_shapes"
    value {
      list {
        shape {
          dim {
            size: 1
          }
        }
      }
    }
  }
  attr {
    key: "dtype"
    value {
      type: DT_INT32
    }
  }
  attr {
    key: "value"
    value {
      tensor {
        dtype: DT_INT32
        tensor_shape {
          dim {
            size: 1
          }
        }
        int_val: 18
      }
    }
  }
}
node {
  name: "report_uninitialized_variables/boolean_mask/strided_slice/stack"
  op: "Const"
  attr {
    key: "_output_shapes"
    value {
      list {
        shape {
          dim {
            size: 1
          }
        }
      }
    }
  }
  attr {
    key: "dtype"
    value {
      type: DT_INT32
    }
  }
  attr {
    key: "value"
    value {
      tensor {
        dtype: DT_INT32
        tensor_shape {
          dim {
            size: 1
          }
        }
        int_val: 1
      }
    }
  }
}
node {
  name: "report_uninitialized_variables/boolean_mask/strided_slice/stack_1"
  op: "Const"
  attr {
    key: "_output_shapes"
    value {
      list {
        shape {
          dim {
            size: 1
          }
        }
      }
    }
  }
  attr {
    key: "dtype"
    value {
      type: DT_INT32
    }
  }
  attr {
    key: "value"
    value {
      tensor {
        dtype: DT_INT32
        tensor_shape {
          dim {
            size: 1
          }
        }
        int_val: 0
      }
    }
  }
}
node {
  name: "report_uninitialized_variables/boolean_mask/strided_slice/stack_2"
  op: "Const"
  attr {
    key: "_output_shapes"
    value {
      list {
        shape {
          dim {
            size: 1
          }
        }
      }
    }
  }
  attr {
    key: "dtype"
    value {
      type: DT_INT32
    }
  }
  attr {
    key: "value"
    value {
      tensor {
        dtype: DT_INT32
        tensor_shape {
          dim {
            size: 1
          }
        }
        int_val: 1
      }
    }
  }
}
node {
  name: "report_uninitialized_variables/boolean_mask/strided_slice"
  op: "StridedSlice"
  input: "report_uninitialized_variables/boolean_mask/Shape"
  input: "report_uninitialized_variables/boolean_mask/strided_slice/stack"
  input: "report_uninitialized_variables/boolean_mask/strided_slice/stack_1"
  input: "report_uninitialized_variables/boolean_mask/strided_slice/stack_2"
  attr {
    key: "Index"
    value {
      type: DT_INT32
    }
  }
  attr {
    key: "T"
    value {
      type: DT_INT32
    }
  }
  attr {
    key: "_output_shapes"
    value {
      list {
        shape {
          dim {
          }
        }
      }
    }
  }
  attr {
    key: "begin_mask"
    value {
      i: 0
    }
  }
  attr {
    key: "ellipsis_mask"
    value {
      i: 0
    }
  }
  attr {
    key: "end_mask"
    value {
      i: 1
    }
  }
  attr {
    key: "new_axis_mask"
    value {
      i: 0
    }
  }
  attr {
    key: "shrink_axis_mask"
    value {
      i: 0
    }
  }
}
node {
  name: "report_uninitialized_variables/boolean_mask/concat/concat_dim"
  op: "Const"
  attr {
    key: "_output_shapes"
    value {
      list {
        shape {
        }
      }
    }
  }
  attr {
    key: "dtype"
    value {
      type: DT_INT32
    }
  }
  attr {
    key: "value"
    value {
      tensor {
        dtype: DT_INT32
        tensor_shape {
        }
        int_val: 0
      }
    }
  }
}
node {
  name: "report_uninitialized_variables/boolean_mask/concat/values_0"
  op: "Const"
  attr {
    key: "_output_shapes"
    value {
      list {
        shape {
          dim {
            size: 1
          }
        }
      }
    }
  }
  attr {
    key: "dtype"
    value {
      type: DT_INT32
    }
  }
  attr {
    key: "value"
    value {
      tensor {
        dtype: DT_INT32
        tensor_shape {
          dim {
            size: 1
          }
        }
        int_val: -1
      }
    }
  }
}
node {
  name: "report_uninitialized_variables/boolean_mask/concat"
  op: "Concat"
  input: "report_uninitialized_variables/boolean_mask/concat/concat_dim"
  input: "report_uninitialized_variables/boolean_mask/concat/values_0"
  input: "report_uninitialized_variables/boolean_mask/strided_slice"
  attr {
    key: "N"
    value {
      i: 2
    }
  }
  attr {
    key: "T"
    value {
      type: DT_INT32
    }
  }
  attr {
    key: "_output_shapes"
    value {
      list {
        shape {
          dim {
            size: 1
          }
        }
      }
    }
  }
}
node {
  name: "report_uninitialized_variables/boolean_mask/Reshape"
  op: "Reshape"
  input: "report_uninitialized_variables/Const"
  input: "report_uninitialized_variables/boolean_mask/concat"
  attr {
    key: "T"
    value {
      type: DT_STRING
    }
  }
  attr {
    key: "Tshape"
    value {
      type: DT_INT32
    }
  }
  attr {
    key: "_output_shapes"
    value {
      list {
        shape {
          dim {
            size: 18
          }
        }
      }
    }
  }
}
node {
  name: "report_uninitialized_variables/boolean_mask/Reshape_1/shape"
  op: "Const"
  attr {
    key: "_output_shapes"
    value {
      list {
        shape {
          dim {
            size: 1
          }
        }
      }
    }
  }
  attr {
    key: "dtype"
    value {
      type: DT_INT32
    }
  }
  attr {
    key: "value"
    value {
      tensor {
        dtype: DT_INT32
        tensor_shape {
          dim {
            size: 1
          }
        }
        int_val: -1
      }
    }
  }
}
node {
  name: "report_uninitialized_variables/boolean_mask/Reshape_1"
  op: "Reshape"
  input: "report_uninitialized_variables/LogicalNot"
  input: "report_uninitialized_variables/boolean_mask/Reshape_1/shape"
  attr {
    key: "T"
    value {
      type: DT_BOOL
    }
  }
  attr {
    key: "Tshape"
    value {
      type: DT_INT32
    }
  }
  attr {
    key: "_output_shapes"
    value {
      list {
        shape {
          dim {
            size: 18
          }
        }
      }
    }
  }
}
node {
  name: "report_uninitialized_variables/boolean_mask/Where"
  op: "Where"
  input: "report_uninitialized_variables/boolean_mask/Reshape_1"
  attr {
    key: "_output_shapes"
    value {
      list {
        shape {
          dim {
            size: -1
          }
          dim {
            size: 1
          }
        }
      }
    }
  }
}
node {
  name: "report_uninitialized_variables/boolean_mask/Squeeze"
  op: "Squeeze"
  input: "report_uninitialized_variables/boolean_mask/Where"
  attr {
    key: "T"
    value {
      type: DT_INT64
    }
  }
  attr {
    key: "_output_shapes"
    value {
      list {
        shape {
          dim {
            size: -1
          }
        }
      }
    }
  }
  attr {
    key: "squeeze_dims"
    value {
      list {
        i: 1
      }
    }
  }
}
node {
  name: "report_uninitialized_variables/boolean_mask/Gather"
  op: "Gather"
  input: "report_uninitialized_variables/boolean_mask/Reshape"
  input: "report_uninitialized_variables/boolean_mask/Squeeze"
  attr {
    key: "Tindices"
    value {
      type: DT_INT64
    }
  }
  attr {
    key: "Tparams"
    value {
      type: DT_STRING
    }
  }
  attr {
    key: "_output_shapes"
    value {
      list {
        shape {
          dim {
            size: -1
          }
        }
      }
    }
  }
  attr {
    key: "validate_indices"
    value {
      b: true
    }
  }
}
node {
  name: "report_uninitialized_resources/Const"
  op: "Const"
  attr {
    key: "_output_shapes"
    value {
      list {
        shape {
          dim {
          }
        }
      }
    }
  }
  attr {
    key: "dtype"
    value {
      type: DT_STRING
    }
  }
  attr {
    key: "value"
    value {
      tensor {
        dtype: DT_STRING
        tensor_shape {
          dim {
          }
        }
      }
    }
  }
}
node {
  name: "concat/concat_dim"
  op: "Const"
  attr {
    key: "_output_shapes"
    value {
      list {
        shape {
        }
      }
    }
  }
  attr {
    key: "dtype"
    value {
      type: DT_INT32
    }
  }
  attr {
    key: "value"
    value {
      tensor {
        dtype: DT_INT32
        tensor_shape {
        }
        int_val: 0
      }
    }
  }
}
node {
  name: "concat"
  op: "Concat"
  input: "concat/concat_dim"
  input: "report_uninitialized_variables/boolean_mask/Gather"
  input: "report_uninitialized_resources/Const"
  attr {
    key: "N"
    value {
      i: 2
    }
  }
  attr {
    key: "T"
    value {
      type: DT_STRING
    }
  }
  attr {
    key: "_output_shapes"
    value {
      list {
        shape {
          dim {
            size: -1
          }
        }
      }
    }
  }
}
node {
  name: "init_2"
  op: "NoOp"
  input: "^accuracy/total/Assign"
  input: "^accuracy/count/Assign"
  input: "^mean/total/Assign"
  input: "^mean/count/Assign"
}
node {
  name: "init_all_tables"
  op: "NoOp"
  input: "^dnn/input_from_feature_columns/input_from_feature_columns/buying_embedding/lookup/table_init"
  input: "^dnn/input_from_feature_columns/input_from_feature_columns/doors_embedding/lookup/table_init"
  input: "^dnn/input_from_feature_columns/input_from_feature_columns/lug_boot_embedding/lookup/table_init"
  input: "^dnn/input_from_feature_columns/input_from_feature_columns/maint_embedding/lookup/table_init"
  input: "^dnn/input_from_feature_columns/input_from_feature_columns/persons_embedding/lookup/table_init"
  input: "^dnn/input_from_feature_columns/input_from_feature_columns/safety_embedding/lookup/table_init"
}
node {
  name: "group_deps_1"
  op: "NoOp"
  input: "^init_2"
  input: "^init_all_tables"
}
node {
  name: "Merge/MergeSummary"
  op: "MergeSummary"
  input: "dnn/hiddenlayer_0_fraction_of_zero_values"
  input: "dnn/hiddenlayer_0_activation"
  input: "dnn/hiddenlayer_1_fraction_of_zero_values"
  input: "dnn/hiddenlayer_1_activation"
  input: "dnn/logits_fraction_of_zero_values"
  input: "dnn/logits_activation"
  input: "loss"
  input: "loss_1"
  attr {
    key: "N"
    value {
      i: 8
    }
  }
  attr {
    key: "_output_shapes"
    value {
      list {
        shape {
        }
      }
    }
  }
}
node {
  name: "save/Const"
  op: "Const"
  attr {
    key: "_output_shapes"
    value {
      list {
        shape {
        }
      }
    }
  }
  attr {
    key: "dtype"
    value {
      type: DT_STRING
    }
  }
  attr {
    key: "value"
    value {
      tensor {
        dtype: DT_STRING
        tensor_shape {
        }
        string_val: "model"
      }
    }
  }
}
node {
  name: "save/num_shards"
  op: "Const"
  attr {
    key: "_output_shapes"
    value {
      list {
        shape {
        }
      }
    }
  }
  attr {
    key: "dtype"
    value {
      type: DT_INT32
    }
  }
  attr {
    key: "value"
    value {
      tensor {
        dtype: DT_INT32
        tensor_shape {
        }
        int_val: 1
      }
    }
  }
}
node {
  name: "save/ShardedFilename/shard"
  op: "Const"
  attr {
    key: "_output_shapes"
    value {
      list {
        shape {
        }
      }
    }
  }
  attr {
    key: "dtype"
    value {
      type: DT_INT32
    }
  }
  attr {
    key: "value"
    value {
      tensor {
        dtype: DT_INT32
        tensor_shape {
        }
        int_val: 0
      }
    }
  }
}
node {
  name: "save/ShardedFilename"
  op: "ShardedFilename"
  input: "save/Const"
  input: "save/ShardedFilename/shard"
  input: "save/num_shards"
  attr {
    key: "_output_shapes"
    value {
      list {
        shape {
        }
      }
    }
  }
}
node {
  name: "save/save/tensor_names"
  op: "Const"
  attr {
    key: "_output_shapes"
    value {
      list {
        shape {
          dim {
            size: 14
          }
        }
      }
    }
  }
  attr {
    key: "dtype"
    value {
      type: DT_STRING
    }
  }
  attr {
    key: "value"
    value {
      tensor {
        dtype: DT_STRING
        tensor_shape {
          dim {
            size: 14
          }
        }
        string_val: "dnn/hiddenlayer_0/biases"
        string_val: "dnn/hiddenlayer_0/weights"
        string_val: "dnn/hiddenlayer_1/biases"
        string_val: "dnn/hiddenlayer_1/weights"
        string_val: "dnn/input_from_feature_columns/buying_embedding/weights"
        string_val: "dnn/input_from_feature_columns/doors_embedding/weights"
        string_val: "dnn/input_from_feature_columns/lug_boot_embedding/weights"
        string_val: "dnn/input_from_feature_columns/maint_embedding/weights"
        string_val: "dnn/input_from_feature_columns/persons_embedding/weights"
        string_val: "dnn/input_from_feature_columns/safety_embedding/weights"
        string_val: "dnn/learning_rate"
        string_val: "dnn/logits/biases"
        string_val: "dnn/logits/weights"
        string_val: "global_step"
      }
    }
  }
}
node {
  name: "save/save/shapes_and_slices"
  op: "Const"
  attr {
    key: "_output_shapes"
    value {
      list {
        shape {
          dim {
            size: 14
          }
        }
      }
    }
  }
  attr {
    key: "dtype"
    value {
      type: DT_STRING
    }
  }
  attr {
    key: "value"
    value {
      tensor {
        dtype: DT_STRING
        tensor_shape {
          dim {
            size: 14
          }
        }
        string_val: "100 0,100"
        string_val: "48 100 0,48:0,100"
        string_val: "50 0,50"
        string_val: "100 50 0,100:0,50"
        string_val: "4 8 0,4:0,8"
        string_val: "4 8 0,4:0,8"
        string_val: "3 8 0,3:0,8"
        string_val: "4 8 0,4:0,8"
        string_val: "3 8 0,3:0,8"
        string_val: "3 8 0,3:0,8"
        string_val: ""
        string_val: "4 0,4"
        string_val: "50 4 0,50:0,4"
        string_val: ""
      }
    }
  }
}
node {
  name: "save/save"
  op: "SaveSlices"
  input: "save/ShardedFilename"
  input: "save/save/tensor_names"
  input: "save/save/shapes_and_slices"
  input: "dnn/hiddenlayer_0/biases/part_0/read"
  input: "dnn/hiddenlayer_0/weights/part_0/read"
  input: "dnn/hiddenlayer_1/biases/part_0/read"
  input: "dnn/hiddenlayer_1/weights/part_0/read"
  input: "dnn/input_from_feature_columns/buying_embedding/weights/part_0/read"
  input: "dnn/input_from_feature_columns/doors_embedding/weights/part_0/read"
  input: "dnn/input_from_feature_columns/lug_boot_embedding/weights/part_0/read"
  input: "dnn/input_from_feature_columns/maint_embedding/weights/part_0/read"
  input: "dnn/input_from_feature_columns/persons_embedding/weights/part_0/read"
  input: "dnn/input_from_feature_columns/safety_embedding/weights/part_0/read"
  input: "dnn/learning_rate"
  input: "dnn/logits/biases/part_0/read"
  input: "dnn/logits/weights/part_0/read"
  input: "global_step"
  attr {
    key: "T"
    value {
      list {
        type: DT_FLOAT
        type: DT_FLOAT
        type: DT_FLOAT
        type: DT_FLOAT
        type: DT_FLOAT
        type: DT_FLOAT
        type: DT_FLOAT
        type: DT_FLOAT
        type: DT_FLOAT
        type: DT_FLOAT
        type: DT_FLOAT
        type: DT_FLOAT
        type: DT_FLOAT
        type: DT_INT64
      }
    }
  }
}
node {
  name: "save/control_dependency"
  op: "Identity"
  input: "save/ShardedFilename"
  input: "^save/save"
  attr {
    key: "T"
    value {
      type: DT_STRING
    }
  }
  attr {
    key: "_class"
    value {
      list {
        s: "loc:@save/ShardedFilename"
      }
    }
  }
  attr {
    key: "_output_shapes"
    value {
      list {
        shape {
        }
      }
    }
  }
}
node {
  name: "save/ShardedFilespec"
  op: "ShardedFilespec"
  input: "save/Const"
  input: "save/num_shards"
  input: "^save/control_dependency"
  attr {
    key: "_output_shapes"
    value {
      list {
        shape {
        }
      }
    }
  }
}
node {
  name: "save/RestoreV2/tensor_names"
  op: "Const"
  attr {
    key: "_output_shapes"
    value {
      list {
        shape {
          dim {
            size: 1
          }
        }
      }
    }
  }
  attr {
    key: "dtype"
    value {
      type: DT_STRING
    }
  }
  attr {
    key: "value"
    value {
      tensor {
        dtype: DT_STRING
        tensor_shape {
          dim {
            size: 1
          }
        }
        string_val: "dnn/hiddenlayer_0/biases"
      }
    }
  }
}
node {
  name: "save/RestoreV2/shape_and_slices"
  op: "Const"
  attr {
    key: "_output_shapes"
    value {
      list {
        shape {
          dim {
            size: 1
          }
        }
      }
    }
  }
  attr {
    key: "dtype"
    value {
      type: DT_STRING
    }
  }
  attr {
    key: "value"
    value {
      tensor {
        dtype: DT_STRING
        tensor_shape {
          dim {
            size: 1
          }
        }
        string_val: "100 0,100"
      }
    }
  }
}
node {
  name: "save/RestoreV2"
  op: "RestoreV2"
  input: "save/Const"
  input: "save/RestoreV2/tensor_names"
  input: "save/RestoreV2/shape_and_slices"
  attr {
    key: "_output_shapes"
    value {
      list {
        shape {
          unknown_rank: true
        }
      }
    }
  }
  attr {
    key: "dtypes"
    value {
      list {
        type: DT_FLOAT
      }
    }
  }
}
node {
  name: "save/Assign"
  op: "Assign"
  input: "dnn/hiddenlayer_0/biases/part_0"
  input: "save/RestoreV2"
  attr {
    key: "T"
    value {
      type: DT_FLOAT
    }
  }
  attr {
    key: "_class"
    value {
      list {
        s: "loc:@dnn/hiddenlayer_0/biases/part_0"
      }
    }
  }
  attr {
    key: "_output_shapes"
    value {
      list {
        shape {
          dim {
            size: 100
          }
        }
      }
    }
  }
  attr {
    key: "use_locking"
    value {
      b: true
    }
  }
  attr {
    key: "validate_shape"
    value {
      b: true
    }
  }
}
node {
  name: "save/RestoreV2_1/tensor_names"
  op: "Const"
  attr {
    key: "_output_shapes"
    value {
      list {
        shape {
          dim {
            size: 1
          }
        }
      }
    }
  }
  attr {
    key: "dtype"
    value {
      type: DT_STRING
    }
  }
  attr {
    key: "value"
    value {
      tensor {
        dtype: DT_STRING
        tensor_shape {
          dim {
            size: 1
          }
        }
        string_val: "dnn/hiddenlayer_0/weights"
      }
    }
  }
}
node {
  name: "save/RestoreV2_1/shape_and_slices"
  op: "Const"
  attr {
    key: "_output_shapes"
    value {
      list {
        shape {
          dim {
            size: 1
          }
        }
      }
    }
  }
  attr {
    key: "dtype"
    value {
      type: DT_STRING
    }
  }
  attr {
    key: "value"
    value {
      tensor {
        dtype: DT_STRING
        tensor_shape {
          dim {
            size: 1
          }
        }
        string_val: "48 100 0,48:0,100"
      }
    }
  }
}
node {
  name: "save/RestoreV2_1"
  op: "RestoreV2"
  input: "save/Const"
  input: "save/RestoreV2_1/tensor_names"
  input: "save/RestoreV2_1/shape_and_slices"
  attr {
    key: "_output_shapes"
    value {
      list {
        shape {
          unknown_rank: true
        }
      }
    }
  }
  attr {
    key: "dtypes"
    value {
      list {
        type: DT_FLOAT
      }
    }
  }
}
node {
  name: "save/Assign_1"
  op: "Assign"
  input: "dnn/hiddenlayer_0/weights/part_0"
  input: "save/RestoreV2_1"
  attr {
    key: "T"
    value {
      type: DT_FLOAT
    }
  }
  attr {
    key: "_class"
    value {
      list {
        s: "loc:@dnn/hiddenlayer_0/weights/part_0"
      }
    }
  }
  attr {
    key: "_output_shapes"
    value {
      list {
        shape {
          dim {
            size: 48
          }
          dim {
            size: 100
          }
        }
      }
    }
  }
  attr {
    key: "use_locking"
    value {
      b: true
    }
  }
  attr {
    key: "validate_shape"
    value {
      b: true
    }
  }
}
node {
  name: "save/RestoreV2_2/tensor_names"
  op: "Const"
  attr {
    key: "_output_shapes"
    value {
      list {
        shape {
          dim {
            size: 1
          }
        }
      }
    }
  }
  attr {
    key: "dtype"
    value {
      type: DT_STRING
    }
  }
  attr {
    key: "value"
    value {
      tensor {
        dtype: DT_STRING
        tensor_shape {
          dim {
            size: 1
          }
        }
        string_val: "dnn/hiddenlayer_1/biases"
      }
    }
  }
}
node {
  name: "save/RestoreV2_2/shape_and_slices"
  op: "Const"
  attr {
    key: "_output_shapes"
    value {
      list {
        shape {
          dim {
            size: 1
          }
        }
      }
    }
  }
  attr {
    key: "dtype"
    value {
      type: DT_STRING
    }
  }
  attr {
    key: "value"
    value {
      tensor {
        dtype: DT_STRING
        tensor_shape {
          dim {
            size: 1
          }
        }
        string_val: "50 0,50"
      }
    }
  }
}
node {
  name: "save/RestoreV2_2"
  op: "RestoreV2"
  input: "save/Const"
  input: "save/RestoreV2_2/tensor_names"
  input: "save/RestoreV2_2/shape_and_slices"
  attr {
    key: "_output_shapes"
    value {
      list {
        shape {
          unknown_rank: true
        }
      }
    }
  }
  attr {
    key: "dtypes"
    value {
      list {
        type: DT_FLOAT
      }
    }
  }
}
node {
  name: "save/Assign_2"
  op: "Assign"
  input: "dnn/hiddenlayer_1/biases/part_0"
  input: "save/RestoreV2_2"
  attr {
    key: "T"
    value {
      type: DT_FLOAT
    }
  }
  attr {
    key: "_class"
    value {
      list {
        s: "loc:@dnn/hiddenlayer_1/biases/part_0"
      }
    }
  }
  attr {
    key: "_output_shapes"
    value {
      list {
        shape {
          dim {
            size: 50
          }
        }
      }
    }
  }
  attr {
    key: "use_locking"
    value {
      b: true
    }
  }
  attr {
    key: "validate_shape"
    value {
      b: true
    }
  }
}
node {
  name: "save/RestoreV2_3/tensor_names"
  op: "Const"
  attr {
    key: "_output_shapes"
    value {
      list {
        shape {
          dim {
            size: 1
          }
        }
      }
    }
  }
  attr {
    key: "dtype"
    value {
      type: DT_STRING
    }
  }
  attr {
    key: "value"
    value {
      tensor {
        dtype: DT_STRING
        tensor_shape {
          dim {
            size: 1
          }
        }
        string_val: "dnn/hiddenlayer_1/weights"
      }
    }
  }
}
node {
  name: "save/RestoreV2_3/shape_and_slices"
  op: "Const"
  attr {
    key: "_output_shapes"
    value {
      list {
        shape {
          dim {
            size: 1
          }
        }
      }
    }
  }
  attr {
    key: "dtype"
    value {
      type: DT_STRING
    }
  }
  attr {
    key: "value"
    value {
      tensor {
        dtype: DT_STRING
        tensor_shape {
          dim {
            size: 1
          }
        }
        string_val: "100 50 0,100:0,50"
      }
    }
  }
}
node {
  name: "save/RestoreV2_3"
  op: "RestoreV2"
  input: "save/Const"
  input: "save/RestoreV2_3/tensor_names"
  input: "save/RestoreV2_3/shape_and_slices"
  attr {
    key: "_output_shapes"
    value {
      list {
        shape {
          unknown_rank: true
        }
      }
    }
  }
  attr {
    key: "dtypes"
    value {
      list {
        type: DT_FLOAT
      }
    }
  }
}
node {
  name: "save/Assign_3"
  op: "Assign"
  input: "dnn/hiddenlayer_1/weights/part_0"
  input: "save/RestoreV2_3"
  attr {
    key: "T"
    value {
      type: DT_FLOAT
    }
  }
  attr {
    key: "_class"
    value {
      list {
        s: "loc:@dnn/hiddenlayer_1/weights/part_0"
      }
    }
  }
  attr {
    key: "_output_shapes"
    value {
      list {
        shape {
          dim {
            size: 100
          }
          dim {
            size: 50
          }
        }
      }
    }
  }
  attr {
    key: "use_locking"
    value {
      b: true
    }
  }
  attr {
    key: "validate_shape"
    value {
      b: true
    }
  }
}
node {
  name: "save/RestoreV2_4/tensor_names"
  op: "Const"
  attr {
    key: "_output_shapes"
    value {
      list {
        shape {
          dim {
            size: 1
          }
        }
      }
    }
  }
  attr {
    key: "dtype"
    value {
      type: DT_STRING
    }
  }
  attr {
    key: "value"
    value {
      tensor {
        dtype: DT_STRING
        tensor_shape {
          dim {
            size: 1
          }
        }
        string_val: "dnn/input_from_feature_columns/buying_embedding/weights"
      }
    }
  }
}
node {
  name: "save/RestoreV2_4/shape_and_slices"
  op: "Const"
  attr {
    key: "_output_shapes"
    value {
      list {
        shape {
          dim {
            size: 1
          }
        }
      }
    }
  }
  attr {
    key: "dtype"
    value {
      type: DT_STRING
    }
  }
  attr {
    key: "value"
    value {
      tensor {
        dtype: DT_STRING
        tensor_shape {
          dim {
            size: 1
          }
        }
        string_val: "4 8 0,4:0,8"
      }
    }
  }
}
node {
  name: "save/RestoreV2_4"
  op: "RestoreV2"
  input: "save/Const"
  input: "save/RestoreV2_4/tensor_names"
  input: "save/RestoreV2_4/shape_and_slices"
  attr {
    key: "_output_shapes"
    value {
      list {
        shape {
          unknown_rank: true
        }
      }
    }
  }
  attr {
    key: "dtypes"
    value {
      list {
        type: DT_FLOAT
      }
    }
  }
}
node {
  name: "save/Assign_4"
  op: "Assign"
  input: "dnn/input_from_feature_columns/buying_embedding/weights/part_0"
  input: "save/RestoreV2_4"
  attr {
    key: "T"
    value {
      type: DT_FLOAT
    }
  }
  attr {
    key: "_class"
    value {
      list {
        s: "loc:@dnn/input_from_feature_columns/buying_embedding/weights/part_0"
      }
    }
  }
  attr {
    key: "_output_shapes"
    value {
      list {
        shape {
          dim {
            size: 4
          }
          dim {
            size: 8
          }
        }
      }
    }
  }
  attr {
    key: "use_locking"
    value {
      b: true
    }
  }
  attr {
    key: "validate_shape"
    value {
      b: true
    }
  }
}
node {
  name: "save/RestoreV2_5/tensor_names"
  op: "Const"
  attr {
    key: "_output_shapes"
    value {
      list {
        shape {
          dim {
            size: 1
          }
        }
      }
    }
  }
  attr {
    key: "dtype"
    value {
      type: DT_STRING
    }
  }
  attr {
    key: "value"
    value {
      tensor {
        dtype: DT_STRING
        tensor_shape {
          dim {
            size: 1
          }
        }
        string_val: "dnn/input_from_feature_columns/doors_embedding/weights"
      }
    }
  }
}
node {
  name: "save/RestoreV2_5/shape_and_slices"
  op: "Const"
  attr {
    key: "_output_shapes"
    value {
      list {
        shape {
          dim {
            size: 1
          }
        }
      }
    }
  }
  attr {
    key: "dtype"
    value {
      type: DT_STRING
    }
  }
  attr {
    key: "value"
    value {
      tensor {
        dtype: DT_STRING
        tensor_shape {
          dim {
            size: 1
          }
        }
        string_val: "4 8 0,4:0,8"
      }
    }
  }
}
node {
  name: "save/RestoreV2_5"
  op: "RestoreV2"
  input: "save/Const"
  input: "save/RestoreV2_5/tensor_names"
  input: "save/RestoreV2_5/shape_and_slices"
  attr {
    key: "_output_shapes"
    value {
      list {
        shape {
          unknown_rank: true
        }
      }
    }
  }
  attr {
    key: "dtypes"
    value {
      list {
        type: DT_FLOAT
      }
    }
  }
}
node {
  name: "save/Assign_5"
  op: "Assign"
  input: "dnn/input_from_feature_columns/doors_embedding/weights/part_0"
  input: "save/RestoreV2_5"
  attr {
    key: "T"
    value {
      type: DT_FLOAT
    }
  }
  attr {
    key: "_class"
    value {
      list {
        s: "loc:@dnn/input_from_feature_columns/doors_embedding/weights/part_0"
      }
    }
  }
  attr {
    key: "_output_shapes"
    value {
      list {
        shape {
          dim {
            size: 4
          }
          dim {
            size: 8
          }
        }
      }
    }
  }
  attr {
    key: "use_locking"
    value {
      b: true
    }
  }
  attr {
    key: "validate_shape"
    value {
      b: true
    }
  }
}
node {
  name: "save/RestoreV2_6/tensor_names"
  op: "Const"
  attr {
    key: "_output_shapes"
    value {
      list {
        shape {
          dim {
            size: 1
          }
        }
      }
    }
  }
  attr {
    key: "dtype"
    value {
      type: DT_STRING
    }
  }
  attr {
    key: "value"
    value {
      tensor {
        dtype: DT_STRING
        tensor_shape {
          dim {
            size: 1
          }
        }
        string_val: "dnn/input_from_feature_columns/lug_boot_embedding/weights"
      }
    }
  }
}
node {
  name: "save/RestoreV2_6/shape_and_slices"
  op: "Const"
  attr {
    key: "_output_shapes"
    value {
      list {
        shape {
          dim {
            size: 1
          }
        }
      }
    }
  }
  attr {
    key: "dtype"
    value {
      type: DT_STRING
    }
  }
  attr {
    key: "value"
    value {
      tensor {
        dtype: DT_STRING
        tensor_shape {
          dim {
            size: 1
          }
        }
        string_val: "3 8 0,3:0,8"
      }
    }
  }
}
node {
  name: "save/RestoreV2_6"
  op: "RestoreV2"
  input: "save/Const"
  input: "save/RestoreV2_6/tensor_names"
  input: "save/RestoreV2_6/shape_and_slices"
  attr {
    key: "_output_shapes"
    value {
      list {
        shape {
          unknown_rank: true
        }
      }
    }
  }
  attr {
    key: "dtypes"
    value {
      list {
        type: DT_FLOAT
      }
    }
  }
}
node {
  name: "save/Assign_6"
  op: "Assign"
  input: "dnn/input_from_feature_columns/lug_boot_embedding/weights/part_0"
  input: "save/RestoreV2_6"
  attr {
    key: "T"
    value {
      type: DT_FLOAT
    }
  }
  attr {
    key: "_class"
    value {
      list {
        s: "loc:@dnn/input_from_feature_columns/lug_boot_embedding/weights/part_0"
      }
    }
  }
  attr {
    key: "_output_shapes"
    value {
      list {
        shape {
          dim {
            size: 3
          }
          dim {
            size: 8
          }
        }
      }
    }
  }
  attr {
    key: "use_locking"
    value {
      b: true
    }
  }
  attr {
    key: "validate_shape"
    value {
      b: true
    }
  }
}
node {
  name: "save/RestoreV2_7/tensor_names"
  op: "Const"
  attr {
    key: "_output_shapes"
    value {
      list {
        shape {
          dim {
            size: 1
          }
        }
      }
    }
  }
  attr {
    key: "dtype"
    value {
      type: DT_STRING
    }
  }
  attr {
    key: "value"
    value {
      tensor {
        dtype: DT_STRING
        tensor_shape {
          dim {
            size: 1
          }
        }
        string_val: "dnn/input_from_feature_columns/maint_embedding/weights"
      }
    }
  }
}
node {
  name: "save/RestoreV2_7/shape_and_slices"
  op: "Const"
  attr {
    key: "_output_shapes"
    value {
      list {
        shape {
          dim {
            size: 1
          }
        }
      }
    }
  }
  attr {
    key: "dtype"
    value {
      type: DT_STRING
    }
  }
  attr {
    key: "value"
    value {
      tensor {
        dtype: DT_STRING
        tensor_shape {
          dim {
            size: 1
          }
        }
        string_val: "4 8 0,4:0,8"
      }
    }
  }
}
node {
  name: "save/RestoreV2_7"
  op: "RestoreV2"
  input: "save/Const"
  input: "save/RestoreV2_7/tensor_names"
  input: "save/RestoreV2_7/shape_and_slices"
  attr {
    key: "_output_shapes"
    value {
      list {
        shape {
          unknown_rank: true
        }
      }
    }
  }
  attr {
    key: "dtypes"
    value {
      list {
        type: DT_FLOAT
      }
    }
  }
}
node {
  name: "save/Assign_7"
  op: "Assign"
  input: "dnn/input_from_feature_columns/maint_embedding/weights/part_0"
  input: "save/RestoreV2_7"
  attr {
    key: "T"
    value {
      type: DT_FLOAT
    }
  }
  attr {
    key: "_class"
    value {
      list {
        s: "loc:@dnn/input_from_feature_columns/maint_embedding/weights/part_0"
      }
    }
  }
  attr {
    key: "_output_shapes"
    value {
      list {
        shape {
          dim {
            size: 4
          }
          dim {
            size: 8
          }
        }
      }
    }
  }
  attr {
    key: "use_locking"
    value {
      b: true
    }
  }
  attr {
    key: "validate_shape"
    value {
      b: true
    }
  }
}
node {
  name: "save/RestoreV2_8/tensor_names"
  op: "Const"
  attr {
    key: "_output_shapes"
    value {
      list {
        shape {
          dim {
            size: 1
          }
        }
      }
    }
  }
  attr {
    key: "dtype"
    value {
      type: DT_STRING
    }
  }
  attr {
    key: "value"
    value {
      tensor {
        dtype: DT_STRING
        tensor_shape {
          dim {
            size: 1
          }
        }
        string_val: "dnn/input_from_feature_columns/persons_embedding/weights"
      }
    }
  }
}
node {
  name: "save/RestoreV2_8/shape_and_slices"
  op: "Const"
  attr {
    key: "_output_shapes"
    value {
      list {
        shape {
          dim {
            size: 1
          }
        }
      }
    }
  }
  attr {
    key: "dtype"
    value {
      type: DT_STRING
    }
  }
  attr {
    key: "value"
    value {
      tensor {
        dtype: DT_STRING
        tensor_shape {
          dim {
            size: 1
          }
        }
        string_val: "3 8 0,3:0,8"
      }
    }
  }
}
node {
  name: "save/RestoreV2_8"
  op: "RestoreV2"
  input: "save/Const"
  input: "save/RestoreV2_8/tensor_names"
  input: "save/RestoreV2_8/shape_and_slices"
  attr {
    key: "_output_shapes"
    value {
      list {
        shape {
          unknown_rank: true
        }
      }
    }
  }
  attr {
    key: "dtypes"
    value {
      list {
        type: DT_FLOAT
      }
    }
  }
}
node {
  name: "save/Assign_8"
  op: "Assign"
  input: "dnn/input_from_feature_columns/persons_embedding/weights/part_0"
  input: "save/RestoreV2_8"
  attr {
    key: "T"
    value {
      type: DT_FLOAT
    }
  }
  attr {
    key: "_class"
    value {
      list {
        s: "loc:@dnn/input_from_feature_columns/persons_embedding/weights/part_0"
      }
    }
  }
  attr {
    key: "_output_shapes"
    value {
      list {
        shape {
          dim {
            size: 3
          }
          dim {
            size: 8
          }
        }
      }
    }
  }
  attr {
    key: "use_locking"
    value {
      b: true
    }
  }
  attr {
    key: "validate_shape"
    value {
      b: true
    }
  }
}
node {
  name: "save/RestoreV2_9/tensor_names"
  op: "Const"
  attr {
    key: "_output_shapes"
    value {
      list {
        shape {
          dim {
            size: 1
          }
        }
      }
    }
  }
  attr {
    key: "dtype"
    value {
      type: DT_STRING
    }
  }
  attr {
    key: "value"
    value {
      tensor {
        dtype: DT_STRING
        tensor_shape {
          dim {
            size: 1
          }
        }
        string_val: "dnn/input_from_feature_columns/safety_embedding/weights"
      }
    }
  }
}
node {
  name: "save/RestoreV2_9/shape_and_slices"
  op: "Const"
  attr {
    key: "_output_shapes"
    value {
      list {
        shape {
          dim {
            size: 1
          }
        }
      }
    }
  }
  attr {
    key: "dtype"
    value {
      type: DT_STRING
    }
  }
  attr {
    key: "value"
    value {
      tensor {
        dtype: DT_STRING
        tensor_shape {
          dim {
            size: 1
          }
        }
        string_val: "3 8 0,3:0,8"
      }
    }
  }
}
node {
  name: "save/RestoreV2_9"
  op: "RestoreV2"
  input: "save/Const"
  input: "save/RestoreV2_9/tensor_names"
  input: "save/RestoreV2_9/shape_and_slices"
  attr {
    key: "_output_shapes"
    value {
      list {
        shape {
          unknown_rank: true
        }
      }
    }
  }
  attr {
    key: "dtypes"
    value {
      list {
        type: DT_FLOAT
      }
    }
  }
}
node {
  name: "save/Assign_9"
  op: "Assign"
  input: "dnn/input_from_feature_columns/safety_embedding/weights/part_0"
  input: "save/RestoreV2_9"
  attr {
    key: "T"
    value {
      type: DT_FLOAT
    }
  }
  attr {
    key: "_class"
    value {
      list {
        s: "loc:@dnn/input_from_feature_columns/safety_embedding/weights/part_0"
      }
    }
  }
  attr {
    key: "_output_shapes"
    value {
      list {
        shape {
          dim {
            size: 3
          }
          dim {
            size: 8
          }
        }
      }
    }
  }
  attr {
    key: "use_locking"
    value {
      b: true
    }
  }
  attr {
    key: "validate_shape"
    value {
      b: true
    }
  }
}
node {
  name: "save/RestoreV2_10/tensor_names"
  op: "Const"
  attr {
    key: "_output_shapes"
    value {
      list {
        shape {
          dim {
            size: 1
          }
        }
      }
    }
  }
  attr {
    key: "dtype"
    value {
      type: DT_STRING
    }
  }
  attr {
    key: "value"
    value {
      tensor {
        dtype: DT_STRING
        tensor_shape {
          dim {
            size: 1
          }
        }
        string_val: "dnn/learning_rate"
      }
    }
  }
}
node {
  name: "save/RestoreV2_10/shape_and_slices"
  op: "Const"
  attr {
    key: "_output_shapes"
    value {
      list {
        shape {
          dim {
            size: 1
          }
        }
      }
    }
  }
  attr {
    key: "dtype"
    value {
      type: DT_STRING
    }
  }
  attr {
    key: "value"
    value {
      tensor {
        dtype: DT_STRING
        tensor_shape {
          dim {
            size: 1
          }
        }
        string_val: ""
      }
    }
  }
}
node {
  name: "save/RestoreV2_10"
  op: "RestoreV2"
  input: "save/Const"
  input: "save/RestoreV2_10/tensor_names"
  input: "save/RestoreV2_10/shape_and_slices"
  attr {
    key: "_output_shapes"
    value {
      list {
        shape {
          unknown_rank: true
        }
      }
    }
  }
  attr {
    key: "dtypes"
    value {
      list {
        type: DT_FLOAT
      }
    }
  }
}
node {
  name: "save/Assign_10"
  op: "Assign"
  input: "dnn/learning_rate"
  input: "save/RestoreV2_10"
  attr {
    key: "T"
    value {
      type: DT_FLOAT
    }
  }
  attr {
    key: "_class"
    value {
      list {
        s: "loc:@dnn/learning_rate"
      }
    }
  }
  attr {
    key: "_output_shapes"
    value {
      list {
        shape {
        }
      }
    }
  }
  attr {
    key: "use_locking"
    value {
      b: true
    }
  }
  attr {
    key: "validate_shape"
    value {
      b: true
    }
  }
}
node {
  name: "save/RestoreV2_11/tensor_names"
  op: "Const"
  attr {
    key: "_output_shapes"
    value {
      list {
        shape {
          dim {
            size: 1
          }
        }
      }
    }
  }
  attr {
    key: "dtype"
    value {
      type: DT_STRING
    }
  }
  attr {
    key: "value"
    value {
      tensor {
        dtype: DT_STRING
        tensor_shape {
          dim {
            size: 1
          }
        }
        string_val: "dnn/logits/biases"
      }
    }
  }
}
node {
  name: "save/RestoreV2_11/shape_and_slices"
  op: "Const"
  attr {
    key: "_output_shapes"
    value {
      list {
        shape {
          dim {
            size: 1
          }
        }
      }
    }
  }
  attr {
    key: "dtype"
    value {
      type: DT_STRING
    }
  }
  attr {
    key: "value"
    value {
      tensor {
        dtype: DT_STRING
        tensor_shape {
          dim {
            size: 1
          }
        }
        string_val: "4 0,4"
      }
    }
  }
}
node {
  name: "save/RestoreV2_11"
  op: "RestoreV2"
  input: "save/Const"
  input: "save/RestoreV2_11/tensor_names"
  input: "save/RestoreV2_11/shape_and_slices"
  attr {
    key: "_output_shapes"
    value {
      list {
        shape {
          unknown_rank: true
        }
      }
    }
  }
  attr {
    key: "dtypes"
    value {
      list {
        type: DT_FLOAT
      }
    }
  }
}
node {
  name: "save/Assign_11"
  op: "Assign"
  input: "dnn/logits/biases/part_0"
  input: "save/RestoreV2_11"
  attr {
    key: "T"
    value {
      type: DT_FLOAT
    }
  }
  attr {
    key: "_class"
    value {
      list {
        s: "loc:@dnn/logits/biases/part_0"
      }
    }
  }
  attr {
    key: "_output_shapes"
    value {
      list {
        shape {
          dim {
            size: 4
          }
        }
      }
    }
  }
  attr {
    key: "use_locking"
    value {
      b: true
    }
  }
  attr {
    key: "validate_shape"
    value {
      b: true
    }
  }
}
node {
  name: "save/RestoreV2_12/tensor_names"
  op: "Const"
  attr {
    key: "_output_shapes"
    value {
      list {
        shape {
          dim {
            size: 1
          }
        }
      }
    }
  }
  attr {
    key: "dtype"
    value {
      type: DT_STRING
    }
  }
  attr {
    key: "value"
    value {
      tensor {
        dtype: DT_STRING
        tensor_shape {
          dim {
            size: 1
          }
        }
        string_val: "dnn/logits/weights"
      }
    }
  }
}
node {
  name: "save/RestoreV2_12/shape_and_slices"
  op: "Const"
  attr {
    key: "_output_shapes"
    value {
      list {
        shape {
          dim {
            size: 1
          }
        }
      }
    }
  }
  attr {
    key: "dtype"
    value {
      type: DT_STRING
    }
  }
  attr {
    key: "value"
    value {
      tensor {
        dtype: DT_STRING
        tensor_shape {
          dim {
            size: 1
          }
        }
        string_val: "50 4 0,50:0,4"
      }
    }
  }
}
node {
  name: "save/RestoreV2_12"
  op: "RestoreV2"
  input: "save/Const"
  input: "save/RestoreV2_12/tensor_names"
  input: "save/RestoreV2_12/shape_and_slices"
  attr {
    key: "_output_shapes"
    value {
      list {
        shape {
          unknown_rank: true
        }
      }
    }
  }
  attr {
    key: "dtypes"
    value {
      list {
        type: DT_FLOAT
      }
    }
  }
}
node {
  name: "save/Assign_12"
  op: "Assign"
  input: "dnn/logits/weights/part_0"
  input: "save/RestoreV2_12"
  attr {
    key: "T"
    value {
      type: DT_FLOAT
    }
  }
  attr {
    key: "_class"
    value {
      list {
        s: "loc:@dnn/logits/weights/part_0"
      }
    }
  }
  attr {
    key: "_output_shapes"
    value {
      list {
        shape {
          dim {
            size: 50
          }
          dim {
            size: 4
          }
        }
      }
    }
  }
  attr {
    key: "use_locking"
    value {
      b: true
    }
  }
  attr {
    key: "validate_shape"
    value {
      b: true
    }
  }
}
node {
  name: "save/RestoreV2_13/tensor_names"
  op: "Const"
  attr {
    key: "_output_shapes"
    value {
      list {
        shape {
          dim {
            size: 1
          }
        }
      }
    }
  }
  attr {
    key: "dtype"
    value {
      type: DT_STRING
    }
  }
  attr {
    key: "value"
    value {
      tensor {
        dtype: DT_STRING
        tensor_shape {
          dim {
            size: 1
          }
        }
        string_val: "global_step"
      }
    }
  }
}
node {
  name: "save/RestoreV2_13/shape_and_slices"
  op: "Const"
  attr {
    key: "_output_shapes"
    value {
      list {
        shape {
          dim {
            size: 1
          }
        }
      }
    }
  }
  attr {
    key: "dtype"
    value {
      type: DT_STRING
    }
  }
  attr {
    key: "value"
    value {
      tensor {
        dtype: DT_STRING
        tensor_shape {
          dim {
            size: 1
          }
        }
        string_val: ""
      }
    }
  }
}
node {
  name: "save/RestoreV2_13"
  op: "RestoreV2"
  input: "save/Const"
  input: "save/RestoreV2_13/tensor_names"
  input: "save/RestoreV2_13/shape_and_slices"
  attr {
    key: "_output_shapes"
    value {
      list {
        shape {
          unknown_rank: true
        }
      }
    }
  }
  attr {
    key: "dtypes"
    value {
      list {
        type: DT_INT64
      }
    }
  }
}
node {
  name: "save/Assign_13"
  op: "Assign"
  input: "global_step"
  input: "save/RestoreV2_13"
  attr {
    key: "T"
    value {
      type: DT_INT64
    }
  }
  attr {
    key: "_class"
    value {
      list {
        s: "loc:@global_step"
      }
    }
  }
  attr {
    key: "_output_shapes"
    value {
      list {
        shape {
        }
      }
    }
  }
  attr {
    key: "use_locking"
    value {
      b: true
    }
  }
  attr {
    key: "validate_shape"
    value {
      b: true
    }
  }
}
node {
  name: "save/restore_shard"
  op: "NoOp"
  input: "^save/Assign"
  input: "^save/Assign_1"
  input: "^save/Assign_2"
  input: "^save/Assign_3"
  input: "^save/Assign_4"
  input: "^save/Assign_5"
  input: "^save/Assign_6"
  input: "^save/Assign_7"
  input: "^save/Assign_8"
  input: "^save/Assign_9"
  input: "^save/Assign_10"
  input: "^save/Assign_11"
  input: "^save/Assign_12"
  input: "^save/Assign_13"
}
node {
  name: "save/restore_all"
  op: "NoOp"
  input: "^save/restore_shard"
}
versions {
  producer: 17
}
